benchmarks/tiny_model.onnx (onnx, 379021 bytes, 25 tensors)

embedding.weight f4 [101, 64]
000000 89 f8 c5 bf 28 2b 80 3f da 24 8d bd 47 05 fe be
       -1.5466472 1.001317 -0.068917945 -0.496134
000010 a2 2d 98 bf 42 71 3a 3c 84 1e df be d7 0e bc 3f
       -1.1888926 0.011379542 -0.4357797 1.4692029
000020 d7 1a 03 3f 31 ff a8 3f e3 86 1f 3e 15 f6 83 3e
       0.5121283 1.3202878 0.15578799 0.25773683
000030 02 e3 a3 bf 5e 41 03 bf c6 ed 98 bf 06 24 90 bf
       -1.2803652 -0.5127162 -1.1947563 -1.1260993
000040 2f 4a aa 3f 7f ab 99 3f 37 7e c6 bf db 3a 58 bf
       1.3303889 1.2005461 -1.5507268 -0.84464806
000050 6c 2c 32 bf 40 c7 d9 bd c1 1a c3 bf ea 39 be 3f
       -0.6959903 -0.10633707 -1.524254 1.4861424
000060 65 a0 05 3f a5 54 c2 bf 4d 23 b5 be ea bb 57 3f
       0.5219787 -1.5182081 -0.35378495 0.8427111
000070 b8 b6 5c 3f 2c 92 8f be e6 e4 06 3f 75 82 a8 bf
       0.86216307 -0.28041208 0.5269302 -1.3164812
000080 a0 1a 27 3d 10 da 87 be 26 b0 ce be bf 3e c2 3d
       0.040796876 -0.26533556 -0.40368766 0.09484624
000090 84 2f a2 bf ad b4 c9 3f fd dc b3 bf 3a ba a9 3d
       -1.2670751 1.5758263 -1.4051815 0.08287473
0000a0 7b d4 0d bf 01 d3 d0 3f 8a ae 9e bf 1b d5 3f 3e
       -0.55402344 1.6314393 -1.2397015 0.18733637
0000b0 d0 55 af 3f 8f 68 16 3f 3c 77 1a 3f 2a 68 c7 be
       1.3698063 0.58753294 0.6033819 -0.38946658
0000c0 f8 6c 8e bf 53 c7 1c 3f 39 6a d4 3f 6b ed 31 be
       -1.1127005 0.61241645 1.6594917 -0.17375724
0000d0 20 ab cb bf cd 42 44 bf 36 90 00 be 6f 9a 9b bf
       -1.5911598 -0.7666443 -0.12555012 -1.2156504
0000e0 56 cf bb bf a9 cb a9 bf da 8c df be 2f b6 46 3f
       -1.4672649 -1.3265277 -0.4366215 0.7762174
0000f0 4f 5d 6b bf c6 97 36 3e 54 ad 55 bf 72 49 75 be
       -0.9193925 0.17831334 -0.834676 -0.23953798
000100 65 58 e6 3e be 8b 5f 3e 6f db c9 3f d9 ee d7 bf
       0.44989315 0.21830651 1.5770091 -1.6869766
000110 4a 3e 0a 3f 91 86 a7 3f fd 0b 38 3f 70 e1 93 3f
       0.54001296 1.3087941 0.7189329 1.1553173
000120 2b 2b 25 bf ac a0 dc be a4 31 b4 3e 9f b1 f8 3d
       -0.64518994 -0.43091333 0.35194123 0.121432535
000130 c5 f1 11 3f 1f 04 86 bf 0f b2 1c bf 5f e8 ae 3f
       0.57009536 -1.0470008 -0.61209196 1.3664664
000140 74 db cc 3d 4b 0e c4 bf 31 d2 6f bf 1d 97 c2 3f
       0.10002795 -1.5316862 -0.936801 1.5202366
000150 04 50 9a 3f 89 00 a9 3f 5c 14 0d 3e 54 67 ca be
       1.2055669 1.3203288 0.13777298 -0.39531958
000160 23 76 86 3f df f6 04 3f 28 26 dc 3f 62 db a8 bf
       1.0504802 0.51939195 1.7199144 -1.319195
000170 21 69 3d 3f 95 78 90 bf 27 2a 50 bf f7 89 be 3d
       0.7398854 -1.1286799 -0.8131432 0.093036585
000180 c8 77 c5 bf d7 4e b4 bf 83 c0 13 bf 55 f0 46 3f
       -1.5427179 -1.408656 -0.57715625 0.7771047
000190 06 23 8d 3f 27 1b 92 3f 1e 20 0e bd 45 84 41 bf
       1.1026313 1.1414536 -0.034698598 -0.7559245
0001a0 df 19 90 3f 73 c2 bb bf fc ac 7b 3e ed 3f b8 bd
       1.1257895 -1.4668716 0.24577707 -0.08996568
0001b0 50 e4 1d bd 31 ee 07 3e ef ca c0 be 09 b8 d4 3f
       -0.038547814 0.13274457 -0.37654826 1.6618663
0001c0 28 6e d0 bf 76 24 13 bf d8 6e 64 3f 8f dc bd bf
       -1.6283617 -0.5747751 0.89231634 -1.4832934
0001d0 e2 ee c8 3d 52 13 c1 3f 9b 93 05 bf 47 71 05 bf
       0.09811188 1.5084021 -0.52178353 -0.5212597
0001e0 08 d0 2e be ab ce b7 3d a3 4e 79 3f 3d eb 7c 3f
       -0.17071545 0.08974966 0.97385615 0.98796445
0001f0 82 59 56 bf 57 09 92 bf 64 ea 49 3f 46 ba 71 3f
       -0.8373033 -1.14091 0.78873277 0.94424856
000200 73 2a df 3e 82 7d 21 be 65 5a dd bf 10 e9 90 bd
       0.43587074 -0.15770534 -1.7293211 -0.07075703
000210 15 8f 81 3f c6 7f 15 bf 9b 85 83 3f 01 73 81 3d
       1.012179 -0.5839809 1.0275148 0.063207634
000220 24 b8 33 be f0 55 30 bf b6 8b 25 bf 89 3d 1a 3f
       -0.17550713 -0.6888113 -0.64666307 0.60250145
000230 d0 9a a4 3f c6 5d ba 3d 37 71 44 3f 5e bb 49 3f
       1.2859745 0.09099917 0.7673525 0.78801525
000240 86 13 d0 3f 87 97 83 bf e5 d2 cc bf 59 8c 5e 3d
       1.6255958 -1.0280617 -1.600186 0.054333065
000250 7e 24 d8 bf a9 23 80 be a9 71 8f bf da 33 f8 bc
       -1.6886137 -0.25027207 -1.1206561 -0.030298162
000260 e6 bc 63 bf ef a3 16 bf 12 09 a4 3f bf 79 55 3f
       -0.8896011 -0.5884389 1.2815268 0.83388895
000270 0e dd c0 3e 1e 94 ca 3f 47 a8 2d 3f 4d e6 5d 3f
       0.3766865 1.5826452 0.67834896 0.86679536
000280 dc c6 bd be 0d e9 ce 3f d7 34 73 bf c3 f3 36 3f
       -0.3706578 1.6164871 -0.950025 0.714657
000290 5e 67 16 3f 82 7f a8 3e 30 37 7f bf 33 cd d3 be
       0.58751476 0.3290978 -0.99693584 -0.41367492
0002a0 cc a2 42 3f 3f 34 dc bf 78 26 13 3f ff 12 de 3d
       0.7602966 -1.7203444 0.57480574 0.10843467
0002b0 ea db c7 3f fb e6 b8 bf eb fb a3 3f a0 dd 12 bc
       1.5613987 -1.444549 1.2811254 -0.008963972
0002c0 0a 1e 47 bf ae c9 17 3f 64 0d bb bf ce a2 0d 3f
       -0.7778021 0.59292114 -1.4613461 0.55326545
0002d0 06 0a 66 3f dd 09 a2 3f a7 da 82 bf 10 3f b5 3f
       0.89859045 1.265926 -1.0222977 1.415987
0002e0 bd b0 8f bf 68 d3 07 be e6 d4 ef 3e 31 6a 5e be
       -1.1225811 -0.13264239 0.46842116 -0.21720196
0002f0 48 56 3b bf 62 6b 03 3f bc 64 86 bf 65 2c 42 3f
       -0.7317853 0.5133573 -1.0499492 0.7584899
000300 6b 59 21 3f 2b a7 47 3f 8e 19 53 be 86 88 86 bf
       0.63027066 0.77989453 -0.20615217 -1.0510414
000310 55 12 6e bf b1 e9 84 bf fb db 3a bf 69 1e bd bf
       -0.9299672 -1.0383817 -0.72991914 -1.4774905
000320 03 ec 65 3f a3 f2 d2 bf 9d c2 b8 bf cc cd 0d 3f
       0.8981325 -1.6480297 -1.4434391 0.55392146
000330 b9 55 16 bf 34 77 43 bf e0 21 a4 3f c6 03 93 3f
       -0.5872455 -0.76353765 1.2822838 1.1485527
000340 58 54 26 3f 3d 30 11 bf 08 3d 79 3f 25 12 2b bf
       0.6497245 -0.5671423 0.9735875 -0.6682456
000350 62 82 a4 bf e8 74 49 bf 87 21 98 3f 52 e3 ae bf
       -1.285229 -0.7869401 1.1885232 -1.3663123
000360 b5 e5 ac bf d8 2a 26 be 06 69 0d 3f fa 62 60 bf
       -1.3507601 -0.16227281 0.5523838 -0.87651026
000370 b3 a1 98 3f 2d 28 76 bf 4e 9d 8c bf 1a f0 25 bf
       1.1924347 -0.96155053 -1.0985506 -0.6481949
000380 93 98 d9 3f 69 50 31 bf 61 b8 a4 bf 9f fd 18 bf
       1.6999687 -0.6926332 -1.2868768 -0.59761995
000390 dc 96 b2 bf 96 67 69 bf 8b 1d 2e 3f a1 f0 2f be
       -1.3952289 -0.91173685 0.6801383 -0.17181636
0003a0 0a f1 cf be 98 57 02 bf 44 8e 44 bf 52 77 d7 3f
       -0.40613586 -0.5091491 -0.7677958 1.6833289
0003b0 f1 41 a1 3e ae e0 b3 3f e1 d5 93 3e a6 d2 d5 bf
       0.31495622 1.4052942 0.28874114 -1.670491
0003c0 d1 b0 b4 bf 5c 6d a9 3f 29 1c 2e bf e4 79 c8 3f
       -1.411646 1.3236499 -0.6801172 1.5662198
0003d0 d2 60 ab 3e aa cb 69 3d 81 e0 30 bf d8 66 33 3f
       0.33472306 0.057078995 -0.69092566 0.700788
0003e0 35 8c ca bf df f1 95 be 85 71 87 be ff ea c6 be
       -1.5824038 -0.29286095 -0.26453796 -0.38851163
0003f0 b9 c7 d0 3f 43 2a bf bf 8d 92 82 bf 30 4e b3 3e
       1.631095 -1.4934772 -1.0200974 0.3502059

rbf.centers f4 [12]
000000 00 00 00 00 2f ba e8 3e 2f ba 68 3f a3 8b ae 3f
       0.0 0.45454547 0.90909094 1.3636364
000010 2f ba e8 3f 5d 74 11 40 a3 8b 2e 40 e8 a2 4b 40
       1.8181819 2.2727273 2.7272727 3.181818
000020 2e ba 68 40 ba e8 82 40 5d 74 91 40 00 00 a0 40
       3.6363635 4.090909 4.5454545 5.0

rbf.widths f4 [12]
000000 55 55 d5 3e 55 55 d5 3e 55 55 d5 3e 55 55 d5 3e
       0.41666666 0.41666666 0.41666666 0.41666666
000010 55 55 d5 3e 55 55 d5 3e 55 55 d5 3e 55 55 d5 3e
       0.41666666 0.41666666 0.41666666 0.41666666
000020 55 55 d5 3e 55 55 d5 3e 55 55 d5 3e 55 55 d5 3e
       0.41666666 0.41666666 0.41666666 0.41666666

interactions.0.message.rbf_to_scalar.0.weight f4 [64, 12]
000000 de 04 bb 3e bc fa 9e 3e f5 45 80 3e de 4a 49 bd
       0.3652715 0.3105067 0.25053373 -0.049143665
000010 d5 6e 22 be 99 5e 1e 3e cf 12 12 bc ea 27 67 be
       -0.15862592 0.15465774 -0.008915617 -0.2257382
000020 82 21 47 ba 16 40 fc bd 51 7d 1e be 8f 7a 07 be
       -0.00075962406 -0.12316911 -0.15477492 -0.13230346
000030 11 3d 89 be 2e a5 6d be 6f 23 95 3d 3a a9 2f 3e
       -0.26804402 -0.23207542 0.07282149 0.17154399
000040 5d 73 05 3e f4 ec cc 3b 0d 95 36 3c a7 48 08 3e
       0.13032289 0.006253833 0.011143935 0.13308965
000050 d3 41 7c 3e f7 70 3e 3e e7 6d b0 be 85 64 57 be
       0.24634485 0.1859778 -0.3445885 -0.21034439
000060 09 77 eb 3e 73 bf ad 3e 53 ba cb bd b1 98 78 be
       0.45989254 0.33935127 -0.09947648 -0.24276997
000070 e7 9d c9 3d fa 12 8b bd 62 9e 0e 3e a8 f5 51 3e
       0.098445706 -0.06790729 0.13927606 0.20503867
000080 88 8f a1 3d e2 8a 5c bd 31 e9 88 bd 1a 34 42 3c
       0.078887045 -0.053843386 -0.06685103 0.011853242
000090 fa d2 fe be 6c 82 1c be 6a 8d ad bd d0 c4 94 3e
       -0.49770337 -0.15284127 -0.08474238 0.29056406
0000a0 fa c0 5e be 7c 0f 6f 3e 0a 67 79 be 7c e6 2e be
       -0.21753302 0.2334575 -0.24355713 -0.1708011
0000b0 7c 4c 49 be 48 9a 5d bd 73 d5 41 3e c3 04 6e 3d
       -0.19658083 -0.054102212 0.1892908 0.05811001
0000c0 01 ed 5f 3e cc 87 91 3e 1d d7 84 3e 76 00 15 3e
       0.21867754 0.28423917 0.25945368 0.14550957
0000d0 39 f7 de 3d 7d ab b4 3c dd 59 cd bd 84 c8 47 be
       0.10886998 0.022054428 -0.10026906 -0.19510084
0000e0 25 69 23 be 39 18 5d be ea 2e 5a be 67 77 ea 3c
       -0.15958078 -0.21591271 -0.21306959 0.028621389
0000f0 b5 5d 19 bf b6 96 18 be 0e 2b 33 be 30 cb 35 bc
       -0.5990861 -0.14901242 -0.17496893 -0.011095807
000100 7d bc af 3c 0a 52 6c be e1 e1 35 be 68 5d 2a be
       0.021452183 -0.2307817 -0.17761947 -0.16637194
000110 aa 82 32 bd 00 ef 0f 3e a4 c7 47 be e0 84 6d 3d
       -0.043581642 0.14056015 -0.1950975 0.057988048
000120 18 34 de 3e 9c 66 c4 3e a2 d9 51 bd 2c d1 bf 3d
       0.4339912 0.38359535 -0.05123294 0.09366068
000130 27 c8 8c bd 5a 3c 35 bc cd b6 44 be 2a ef 87 bd
       -0.068741135 -0.011061752 -0.19210358 -0.06637414
000140 05 82 9b 3d 77 1c 2f 3e 48 9a 47 bd 9d ac 10 3e
       0.07593159 0.17100702 -0.04873112 0.14128347
000150 8c b7 f8 be ac c9 25 be f5 58 04 be 8b 5c 57 3e
       -0.48577535 -0.16190213 -0.1292456 0.21031396
000160 ac 02 49 be 40 da 42 3e c1 98 75 be 8b ce 45 3d
       -0.19629925 0.19028568 -0.23984052 0.048292678
000170 36 7d 7a 3e 6f d8 5e be 74 eb a7 be ba 77 ec bd
       0.24461827 -0.2176225 -0.32796824 -0.115462735
000180 65 fb f5 3e ab 26 c1 3d 43 eb 08 be 67 1f 45 be
       0.4804336 0.094312035 -0.13370995 -0.1925026
000190 58 b7 19 bb f9 cf 3e 3e 86 4f 68 be 53 7f 3b 3e
       -0.0023455229 0.18634023 -0.22686586 0.18310289
0001a0 13 32 35 3e 8b 81 82 3e 0f 55 56 be 26 cd c0 3b
       0.17694883 0.25489458 -0.20930885 0.0058838306
0001b0 4b c0 0a 3f d1 6e fa 3d 14 10 a5 bd e9 74 2d be
       0.54199666 0.12228168 -0.08059707 -0.16939129
0001c0 6f 51 7e 3e 1b af 55 bd b8 ed 2b be d3 3b 18 3e
       0.24835752 -0.052168947 -0.16789901 0.14866571
0001d0 cb 2e a9 3c 7a a7 81 bb 63 8b a3 3d da 58 ae bd
       0.020652195 -0.0039567323 0.0798557 -0.08513041
0001e0 ec 38 0f 3f ed 60 9d 3d 9b 36 0e be ca 6d 45 3d
       0.5594623 0.07684503 -0.13888018 0.048200406
0001f0 d5 8d 64 3d 75 b8 96 bd 99 24 ba 3d 2d 98 bf 3d
       0.055799324 -0.07359401 0.09089012 0.09355197
000200 06 3a 6f 3e 34 9c 90 3e f3 34 dd 3d 81 f2 08 be
       0.23361978 0.28244174 0.10801115 -0.13373758
000210 61 87 07 3f 6e 93 3e be ee c1 8c 3e c2 8f 09 be
       0.52940947 -0.18610927 0.27491707 -0.13433746
000220 e6 82 0c bd 54 61 da bd a2 be ac bd a6 3b d4 3d
       -0.034304522 -0.10663095 -0.08434798 0.103629395
000230 15 48 e1 bd ac 8b 14 be 2d 88 39 3c 7a 52 9d bc
       -0.11000077 -0.14506406 0.011323971 -0.019204367
000240 55 8c d2 be 3f c3 91 be af ee 8f be 29 e8 a6 3c
       -0.4112269 -0.28469273 -0.2811179 0.020374374
000250 79 05 6b 3e 9e 09 77 3e bb 23 05 be 8d d0 5f be
       0.22951306 0.24124762 -0.13001911 -0.218569
000260 81 de 1e bd 6e 73 25 be 22 37 43 3e aa a4 67 3d
       -0.038786415 -0.16157314 0.19064 0.05655352
000270 c2 65 97 3e e8 14 6c 3e 19 24 3c be 5c c8 86 be
       0.29569823 0.2305485 -0.18373145 -0.26324737
000280 35 27 91 be f4 54 b6 3d 13 b3 9b 3d bd 6b 7b be
       -0.28350225 0.08902922 0.07602515 -0.24552818
000290 b0 ba 79 be f1 27 4b bd 80 7c 58 be dd 6d 79 be
       -0.24387622 -0.049598638 -0.21141243 -0.24358316
0002a0 18 78 f5 be 7c 43 d3 3d 08 96 8a 3d 11 0f 15 3e
       -0.47943187 0.10315606 0.067668974 0.14556529
0002b0 a9 3a b2 bd 77 59 45 be 89 67 14 be 22 f5 6a be
       -0.08702595 -0.1927241 -0.1449262 -0.22945073
0002c0 de 72 a5 bd 64 66 29 3e a1 24 d7 bd b7 16 eb bd
       -0.0807855 0.16542965 -0.10505033 -0.11478942
0002d0 55 5e 5d 3e a9 62 8d 3e 43 c5 58 3e 5c 48 60 bd
       0.21618016 0.27614334 0.21169 -0.054756507
0002e0 04 76 f8 bd a0 10 7b bc 38 43 0c be 1f a0 65 be
       -0.12131885 -0.015323788 -0.13697517 -0.22424363
0002f0 6d 33 f6 3d dd 62 84 be 88 cb 4a bd 4b b7 18 3e
       0.120215274 -0.25856677 -0.04951051 0.1491367
000300 b1 09 ef be 1d b1 ab be 1f 33 76 be 67 69 1f 3e
       -0.4668708 -0.33533564 -0.24042939 0.15567552
000310 26 28 83 be 74 64 d1 bd 72 09 01 bc 6d ca 50 3e
       -0.25616568 -0.10224238 -0.007875787 0.2038972
000320 fb 49 9d bd 68 1f 01 be 91 45 8d be 20 4f 38 be
       -0.07680126 -0.12609637 -0.27592137 -0.17998934
000330 93 6d f9 be 02 0d 63 be d3 84 d4 3d 86 36 43 bd
       -0.4871641 -0.22172931 0.10376897 -0.04765942
000340 18 a8 8a be e2 9a 1b 3d 08 2c 59 3e 79 35 9a 3d
       -0.2708137 0.037989505 0.21208203 0.0752973
000350 01 91 43 be e5 45 b5 bc 1b 5f 81 3d 0b 7a 30 3e
       -0.19098283 -0.022128055 0.06316968 0.17234056
000360 ba c6 f2 3e 9f cc 01 3e 08 e6 38 3e b8 84 81 be
       0.4741724 0.12675713 0.180565 -0.2529657
000370 f7 6b 97 be aa 19 d7 bd 4a 10 a3 bd 9c 3c 24 3e
       -0.29574558 -0.10502942 -0.07962091 0.16038746
000380 00 34 55 3e c3 57 90 3b b6 7f 75 be 5c ab 0d 3e
       0.20820618 0.0044049933 -0.23974499 0.138349
000390 5c bb 41 3f a6 46 ba 3e 34 48 87 3b d3 6a 9c be
       0.7567651 0.36382025 0.0041284803 -0.3055025
0003a0 68 c2 0b 3c 97 c5 39 3e e2 f4 cf 3c 78 ee 30 bd
       0.008530237 0.18141781 0.025385324 -0.04319617
0003b0 bd 0b b0 bb c5 d7 1d be 3e 56 88 3e 80 e0 9e 3d
       -0.005372493 -0.15414341 0.26628298 0.07757664
0003c0 f1 dd 95 3e 2c a2 a9 3e ed 99 74 3e 52 0c 94 3e
       0.2927089 0.3313154 0.23886843 0.2891565
0003d0 a9 3d 8d 3e 34 2b 58 3e 29 04 00 bd 61 1a 83 be
       0.27586105 0.2111023 -0.031253967 -0.25606063
0003e0 70 0f c8 3d 62 fc 0f 3e 16 d3 73 bb 50 be 68 3d
       0.097685695 0.1406112 -0.0037204674 0.05682212
0003f0 5b 64 06 3e 67 d1 4a be 74 11 7e 3e 07 e0 22 3e
       0.1312422 -0.19806443 0.24811345 0.15905772

interactions.0.message.rbf_to_scalar.0.bias f4 [64]
000000 97 2d ce bb 75 ca c8 bc 87 60 ff bb 8b 86 38 3c
       -0.006292056 -0.024510602 -0.0077934894 0.011262546
000010 69 eb 84 ba 04 24 b4 3b 1d b9 33 3c 1b 5b c5 3b
       -0.0010140958 0.0054974575 0.010969427 0.0060228235
000020 25 4a 1d bb c9 76 0b 3b d9 4e 91 3b c7 a7 34 3b
       -0.0024000492 0.0021280518 0.004434448 0.0027565823
000030 23 f8 52 bb 94 85 a0 ba 2a 13 e6 3c 78 bb 64 3c
       -0.0032191358 -0.0012246841 0.02808531 0.013960712
000040 a9 ce fe 3b 82 d5 00 bc 1c 05 7e 3c ce a3 83 3a
       0.0077761007 -0.007863404 0.015504148 0.0010043324
000050 87 2d 95 bc b3 2b 1b 3a ef cb 5b bc bf cc d1 3a
       -0.018210186 0.00059192925 -0.013415321 0.0016006454
000060 de b1 1b bc 4e ac 7a bb 1d 3e 5a 3b c6 cf 96 39
       -0.009502856 -0.0038249674 0.0033301183 0.00028765033
000070 3c 0a d6 3b 53 89 14 bc 77 cb 35 3a 7f e5 8b bb
       0.0065319818 -0.009065944 0.00069349207 -0.0042693014
000080 a4 b1 99 ba 68 ee 39 3c 8f bd 71 ba 9f 96 6c 3a
       -0.0011725915 0.011348344 -0.0009221667 0.000902513
000090 eb 54 e3 bb f2 d3 88 bc 2a ed ab 3b 0d d9 82 3c
       -0.0069376132 -0.016702626 0.005246778 0.015972639
0000a0 6b da 9e bb 6f 98 38 bb 5a 2d b5 3b 9a d5 01 bc
       -0.004847815 -0.002816703 0.005529088 -0.007924462
0000b0 9a 82 1b 3b b8 76 af 3b 48 41 67 3c 5c 16 87 bb
       0.0023728968 0.0053547285 0.014114685 -0.0041225385
0000c0 a4 88 87 bc 43 16 6a 38 de 21 58 bb 4c bf 18 3c
       -0.016544648 5.581068e-05 -0.003297917 0.0093229525
0000d0 50 d4 a6 ba 2e 82 74 3b 93 2d aa bc 46 4a c8 bb
       -0.0012728069 0.0037309038 -0.020773685 -0.0061123697
0000e0 ee 0a 12 bc cf 8c ef ba bb bf f0 3b 8c 2e 2c b8
       -0.008913739 -0.0018276217 0.007347075 -4.1051346e-05
0000f0 20 ee fd 3b 04 e9 54 3c dc 48 a6 bb fa 7e 14 3b
       0.007749334 0.012995008 -0.0050746035 0.0022658692

interactions.0.message.rbf_to_scalar.2.weight f4 [192, 64]
000000 46 82 39 3e fd 9f 20 bd ae e0 1b 3b 52 c6 bb bd
       0.18116102 -0.039215077 0.0023785043 -0.09168686
000010 42 30 d4 3d 76 dc ec bd f0 58 76 bd 13 85 02 bc
       0.10360767 -0.11565487 -0.06014341 -0.007966298
000020 f9 73 8d 3d 79 f0 7e 3c e2 d2 05 3e ac 23 fa bc
       0.06906886 0.015560263 0.13068727 -0.030534588
000030 c5 90 63 be 60 8c dd 3d d3 8d 09 bc 8e 19 4e 3d
       -0.22223194 0.1081779 -0.00839563 0.05031734
000040 57 85 a8 bd 4c 4d 14 be 21 3a 34 bd 19 fa 0f 3e
       -0.082285576 -0.14482611 -0.04400075 0.14060248
000050 0f 31 46 3b 3a 6a 11 3e cb 59 d2 bd 0a e1 99 3d
       0.0030241644 0.14200678 -0.10271033 0.07513626
000060 3a 39 09 be 49 d6 2c be e6 fc 66 3b 64 67 42 3e
       -0.13400736 -0.16878618 0.0035245954 0.18984753
000070 fb e6 a9 3d 73 2a 25 3d 80 fb 92 3d 35 57 51 bd
       0.08296009 0.040323686 0.07176876 -0.051108558
000080 79 33 11 be d6 a2 a0 3c ac ae ea 3c de fc 8a 3d
       -0.14179792 0.019608896 0.028647743 0.06786512
000090 8a c7 1f be e6 fd c4 bd e6 1a 53 3d a7 55 f2 3d
       -0.15603462 -0.0961874 0.051539324 0.11832743
0000a0 ee c3 88 3d 5c 4d c9 bc 5a 3a 37 bd 45 b2 80 bd
       0.066779956 -0.02457302 -0.044733383 -0.06284002
0000b0 9a df 3a bc e2 41 fa 3d 6b f9 b5 3c 79 41 33 bd
       -0.01140585 0.122195974 0.022213658 -0.04376361
0000c0 85 2e c0 39 2b 7e 02 bc 3d c6 9e 3d c0 0e 2c be
       0.00036655754 -0.007964651 0.07752655 -0.16802502
0000d0 79 86 63 3d aa 36 15 3e 00 98 05 3e 26 a6 5c 3d
       0.055548165 0.14571634 0.13046265 0.05386939
0000e0 24 3a 99 3c 30 2b da 3c 93 41 36 bd 0d 9b 34 3d
       0.018704481 0.026631922 -0.04449613 0.04409318
0000f0 2b e1 ec 3d 93 c8 33 be 28 e0 ae 3c e0 33 91 3d
       0.11566385 -0.17556982 0.02134712 0.070899725
000100 85 43 d3 bb a0 45 02 be 29 67 87 bd e7 9a 4a 3c
       -0.006447258 -0.12721872 -0.06611473 0.012366033
000110 d2 dd 94 3d 5c 19 7e 3c b0 cf db 3c e2 9c 33 3d
       0.07268871 0.015508976 0.026832432 0.043850787
000120 0e 6c fd 3d 36 bf 8a 3d 69 f6 d9 bd d7 f3 db bd
       0.123741254 0.06774752 -0.10642702 -0.10739868
000130 70 0a 9a 3c 5c d0 1f bc fb 08 0b be 16 02 2e 3e
       0.018803805 -0.009754267 -0.13577645 0.16992983
000140 40 9f 24 3d 25 7e 4b bc 61 4f 3b 3e 28 1e 37 3e
       0.040190935 -0.012420212 0.18292 0.17882597
000150 fb 87 a0 3d 94 bc 0b bd 61 41 04 3e bf 4c 23 3e
       0.07838436 -0.03411539 0.12915565 0.15947245
000160 35 d4 28 3d ae 2f 4a be 9e 32 f4 3a 50 dc 70 bd
       0.041218 -0.19744751 0.0018630808 -0.058803856
000170 ea 66 43 39 f8 da 0e be 93 40 93 3d 71 37 92 be
       0.00018634988 -0.13950717 0.07190051 -0.28557923
000180 cd 62 f7 bd 19 17 de bd 56 c4 6c 3e 38 1a 16 3e
       -0.12079392 -0.10844249 0.23121771 0.14658439
000190 78 28 1d be c5 67 96 3d 25 5a 61 be bb bd f4 bb
       -0.15347469 0.07344011 -0.22007044 -0.0074689067
0001a0 52 15 4b bd 04 3e 89 bd 83 e0 33 be 03 a5 19 be
       -0.04958088 -0.06701282 -0.17566113 -0.15004353
0001b0 66 b3 63 bd 5f 91 de 3c 35 fd 45 3d 84 a0 95 3d
       -0.05559101 0.027168928 0.04833718 0.073060066
0001c0 1d d8 32 3e ec fe fa bc 06 20 dd 3d 2c 6d 10 be
       0.17465253 -0.030639134 0.107971236 -0.14104146
0001d0 48 b9 c6 3d 9e b1 20 3e 4b 52 aa bd 4b c8 bc bd
       0.09703308 0.15692756 -0.083164774 -0.0921789
0001e0 6a 99 2c 3e c5 38 cf bc 66 5d 72 be c3 dc 08 be
       0.16855398 -0.025295625 -0.23668441 -0.13365464
0001f0 5b 0e 66 3d b0 b2 ab 3c e4 e2 5e 3d 44 20 43 bc
       0.056166034 0.020959228 0.0544156 -0.011909548
000200 90 6a b6 bd 76 ff 2f 3b ac e6 21 3e d7 3b ca 3d
       -0.08907044 0.0026855147 0.1581065 0.09874695
000210 b9 b7 57 3d ed ab 09 3d 0f 66 12 3e c2 47 dd bd
       0.052665446 0.033611227 0.14296745 -0.10804702
000220 99 e6 cc bd d5 ac ed 3d 7b bc 72 3d de b5 22 3b
       -0.100049205 0.11605231 0.05926178 0.002482764
000230 06 db bf bc 97 69 12 be a0 71 2a 3e 26 6c 98 3d
       -0.023419868 -0.14298092 0.16644907 0.07442503
000240 9a b0 27 be 63 79 38 be c9 6f 3a bd d9 94 8f 3d
       -0.16375962 -0.18015055 -0.045516763 0.07010812
000250 b4 b7 f9 bb b1 bc d1 3d cd 62 07 be 1e ea ae bd
       -0.007620776 0.10241068 -0.13221283 -0.08540748
000260 69 ff eb bd 0e 0e 27 be 6c 65 f3 bd 01 60 f2 3c
       -0.11523325 -0.16313955 -0.11884579 0.029586794
000270 ea a0 e6 bd 99 e9 a9 3d 3e 9a 49 bd c5 81 1d be
       -0.11261161 0.08296508 -0.049219362 -0.15381534
000280 c7 bd a1 3d e1 57 03 be 18 bf 8f 3d 85 c9 54 bc
       0.07897525 -0.12826492 0.0701887 -0.012987499
000290 5e 43 6c bb 78 44 d5 3d 9c a0 7b 3d a3 86 1f 3e
       -0.0036050896 0.1041345 0.061432466 0.15578704
0002a0 ec ae 3d bd a2 3f 8c 3d f7 65 e1 bc b0 69 22 be
       -0.046309397 0.068480745 -0.027514441 -0.15860629
0002b0 66 97 de bc d9 2e 13 3e 3b 96 e0 3d 8e fa 85 bc
       -0.027171802 0.1437334 0.10966154 -0.016354825
0002c0 99 08 0c be 3c 9a 89 3d 9c 75 a7 bd d5 9c 8b b9
       -0.13675155 0.06718871 -0.08176729 -0.00026628995
0002d0 85 e9 db bc e6 14 f4 bd c8 00 0c 3d 01 01 43 be
       -0.02684475 -0.119180486 0.034180433 -0.19043352
0002e0 82 68 75 bd a9 17 d0 3d 11 b0 b8 bd cf df 12 be
       -0.05991412 0.10160763 -0.09017957 -0.14343189
0002f0 e1 43 dd bc 6f b1 2e be f2 c7 24 3c 20 09 2d be
       -0.027009906 -0.17059873 0.010057436 -0.16898012
000300 3f 88 01 3e 50 c9 ac 3c 7a 61 2c 3d 0f 62 b8 bd
       0.1264963 0.021092087 0.04208515 -0.09003078
000310 85 3f 04 be 02 e0 f3 3d 5c 51 91 bd bf a9 d6 bc
       -0.12914856 0.119079605 -0.07095596 -0.026203988
000320 1d 8f cf bb 04 9e f7 3c b4 a7 77 3d a8 b9 d3 3b
       -0.006334199 0.030226715 0.06046267 0.006461341
000330 c9 74 ce bd 05 be d4 3d 9b 92 db 3d 88 2c ec bd
       -0.10080869 0.10387806 0.10721322 -0.11531931
000340 a1 f8 0a 3d 40 b8 dc bd b4 b1 df bd 85 d8 b0 3d
       0.033928517 -0.107773304 -0.10922566 0.08635048
000350 e1 d4 2c bc d1 91 30 3c db 14 f9 3d 0e a4 aa 3d
       -0.010548801 0.010776953 0.12162181 0.08332072
000360 15 68 e0 3d 6b f2 d5 bd 16 31 cd 3d 30 f3 0b bd
       0.10957352 -0.10446628 0.10019128 -0.03416747
000370 84 1c ef bd 74 db eb 3d d4 98 43 bc 05 f9 03 3c
       -0.11675361 0.11516467 -0.0119382925 0.008054976
000380 d1 75 e7 bc d7 54 8e 3d ee 9e a4 3b d4 52 25 be
       -0.028254421 0.06949776 0.0050238287 -0.16144878
000390 e4 8c e4 3c 47 b4 71 b9 a6 b8 ea 3d 8b 08 c2 3d
       0.027899213 -0.0002305071 0.11461 0.09474286
0003a0 67 31 f8 bd 04 3c 08 be 78 d3 6a 3d 45 ef 85 bd
       -0.12118798 -0.13304144 0.05733058 -0.06539778
0003b0 b8 f2 30 bd aa 7d 82 bd 94 30 7c bd f5 3a 05 3e
       -0.043200225 -0.06371625 -0.061569765 0.13010772
0003c0 20 70 6a bd 7d 5f 13 be 95 fa 0f 3e 10 e2 ef 3c
       -0.057235837 -0.14391895 0.14060433 0.0292826
0003d0 51 6b dd 3d 32 ed 94 bd f8 93 d9 3d 8f 16 e9 3d
       0.108114846 -0.07271804 0.10623926 0.11381256
0003e0 5f d7 03 bd 89 8d 88 bd a3 2c f2 3c bb 5c 66 bd
       -0.032187816 -0.06667621 0.0295623 -0.05624078
0003f0 7a 81 80 3d f2 79 fe 3c 02 46 ef 3d ca da 08 be
       0.06274696 0.031064007 0.11683275 -0.13364711

interactions.0.message.rbf_to_scalar.2.bias f4 [192]
000000 8c 95 87 3a 63 3f 85 3b 0f 6e 82 bb 4b c4 11 39
       0.0010344251 0.004066394 -0.003980405 0.00013901402
000010 35 82 83 3c 40 d7 79 bb e6 19 b1 b9 73 9f 3f 3b
       0.016053298 -0.0038122684 -0.00033779367 0.0029239326
000020 c5 b1 3c 3a a4 c0 ef 3b c1 19 0a 3d 5f 66 03 3b
       0.00071981206 0.0073166657 0.033715967 0.0020050032
000030 ee 23 97 3b 9f 8a 9e 3c 37 d6 72 3c ea 2c 97 bb
       0.0046124374 0.019353209 0.014821581 -0.0046135085
000040 bc b2 82 39 71 ce 84 3b a7 19 4a bb 99 84 9f 3c
       0.000249287 0.00405293 -0.0030838044 0.019472407
000050 aa 8b 4f 3a 52 12 85 38 f1 90 83 3c 36 46 87 bc
       0.0007917235 6.3453466e-05 0.016060324 -0.016512971
000060 37 32 6c bb 31 99 53 bc fd 0a fe bb 2b 45 8d bb
       -0.0036040673 -0.012914942 -0.0077527747 -0.004311224
000070 7a d2 3d bc 26 a3 43 bb f2 e7 bc 3b b2 5d 83 bc
       -0.011585826 -0.0029851883 0.0057649547 -0.016035888
000080 78 a3 1a 3a ad 50 46 bb 09 72 85 3c 56 dc 82 bc
       0.00058989925 -0.003026049 0.016289728 -0.015974205
000090 c1 6a 97 3b dd c0 8b bc fd 35 ef 3a 86 06 68 bc
       0.0046208804 -0.017059738 0.0018250343 -0.014161712
0000a0 f0 5d b4 bb 38 04 b0 bb e6 c7 a1 b9 18 67 97 38
       -0.0055043623 -0.0053715967 -0.0003085725 7.219444e-05
0000b0 0b 27 68 bb e3 43 77 bb 3d c8 b6 bb 29 7f 13 bb
       -0.0035423662 -0.0037729673 -0.0055780695 -0.0022506213
0000c0 4f 96 7c bc e4 33 f2 ba 83 fd f5 3b c0 bb 6b 3a
       -0.015416696 -0.0018478599 0.0075070276 0.00089925155
0000d0 02 eb 26 3c d8 73 b5 bb 22 38 f0 3b b0 a5 37 3c
       0.010187866 -0.0055374913 0.0073309103 0.011208937
0000e0 4f 4b 08 3c 6f cb c0 3a 9c 63 0d 3b ef 9d db 3b
       0.008318736 0.0014709065 0.0021574264 0.0067021768
0000f0 a1 d9 3b bc b0 56 90 3b 90 47 1d bb 6f 02 ad bc
       -0.011465461 0.004404865 -0.0023998953 -0.021119324
000100 00 00 00 00 00 00 00 00 00 00 00 00 00 00 00 00
       0.0 0.0 0.0 0.0
000110 00 00 00 00 00 00 00 00 00 00 00 00 00 00 00 00
       0.0 0.0 0.0 0.0
000120 00 00 00 00 00 00 00 00 00 00 00 00 00 00 00 00
       0.0 0.0 0.0 0.0
000130 00 00 00 00 00 00 00 00 00 00 00 00 00 00 00 00
       0.0 0.0 0.0 0.0
000140 00 00 00 00 00 00 00 00 00 00 00 00 00 00 00 00
       0.0 0.0 0.0 0.0
000150 00 00 00 00 00 00 00 00 00 00 00 00 00 00 00 00
       0.0 0.0 0.0 0.0
000160 00 00 00 00 00 00 00 00 00 00 00 00 00 00 00 00
       0.0 0.0 0.0 0.0
000170 00 00 00 00 00 00 00 00 00 00 00 00 00 00 00 00
       0.0 0.0 0.0 0.0
000180 00 00 00 00 00 00 00 00 00 00 00 00 00 00 00 00
       0.0 0.0 0.0 0.0
000190 00 00 00 00 00 00 00 00 00 00 00 00 00 00 00 00
       0.0 0.0 0.0 0.0
0001a0 00 00 00 00 00 00 00 00 00 00 00 00 00 00 00 00
       0.0 0.0 0.0 0.0
0001b0 00 00 00 00 00 00 00 00 00 00 00 00 00 00 00 00
       0.0 0.0 0.0 0.0
0001c0 00 00 00 00 00 00 00 00 00 00 00 00 00 00 00 00
       0.0 0.0 0.0 0.0
0001d0 00 00 00 00 00 00 00 00 00 00 00 00 00 00 00 00
       0.0 0.0 0.0 0.0
0001e0 00 00 00 00 00 00 00 00 00 00 00 00 00 00 00 00
       0.0 0.0 0.0 0.0
0001f0 00 00 00 00 00 00 00 00 00 00 00 00 00 00 00 00
       0.0 0.0 0.0 0.0
000200 42 0e 2f 3b 7e 55 4d 3b c5 a6 a3 bb 85 b1 be 3b
       0.002671138 0.0031331475 -0.0049942457 0.005819502
000210 03 3b a2 3a 77 a4 a2 3b 5b a0 ca bb e6 8c c2 3b
       0.0012377206 0.0049634534 -0.0061836666 0.0059372066
000220 c6 4b 86 bb f8 d8 31 3c ea 70 9c 3b e3 69 64 3c
       -0.0040983884 0.010854952 0.0047742026 0.013941261
000230 74 78 dd 3b ca 73 db b9 13 99 03 3b a6 97 03 3b
       0.006758744 -0.00041857205 0.0020080253 0.0020079403
000240 bb 8e 20 3a 8c 4a d6 3a 4b 24 19 bc c2 dc 9a 3b
       0.0006124784 0.0016349121 -0.009347032 0.0047260234
000250 db a2 13 bb da 87 28 3b 73 ea 9f 3a 0e 3e 88 ba
       -0.002252749 0.002571574 0.0012200609 -0.001039447
000260 19 4f a3 bb 06 11 30 bc 34 11 0d bb 86 1d 0b bb
       -0.0049837944 -0.010746246 -0.0021525146 -0.0021227314
000270 36 5c 11 bd a7 77 b3 3b 3c 80 d7 bb e0 78 ea 3b
       -0.03548833 0.00547691 -0.006576566 0.0071555227
000280 4d 12 8a bc 86 d1 50 bc 6d d8 88 bb 6c 21 67 3c
       -0.01685443 -0.012745267 -0.0041761906 0.0141070895
000290 3b b8 14 3b 2b 0a 1d bb 86 12 a2 bc 3e 6a be 3a
       0.0022692818 -0.002396236 -0.019784223 0.0014527512
0002a0 a4 70 cf bb b3 87 13 bb a5 78 0b bc ac 08 d8 3a
       -0.0063305665 -0.0022511303 -0.008512651 0.0016482077
0002b0 39 59 0b 3a 87 56 a2 3a af 79 c5 bb cc 9e bb ba
       0.00053157244 0.0012385406 -0.0060264687 -0.0014314293
0002c0 65 be 63 bc 7a 98 2a bb 00 2e 86 bc 45 de 90 bc
       -0.013900374 -0.0026030825 -0.016379356 -0.017684111
0002d0 71 dc 0c 3c 26 e6 2f 3b e2 fc eb 3a 2b 5f 10 ba
       0.008597479 0.002684006 0.0018004442 -0.0005507345
0002e0 ca 2e f9 3a 54 50 bb bc 20 83 88 3c 26 a3 db 3a
       0.0019011137 -0.022865452 0.016664088 0.0016756996
0002f0 72 75 53 ba 28 9b 8d ba 89 4d 1c bc 44 5d 08 bc
       -0.0008066512 -0.0010803686 -0.00953997 -0.0083230175

interactions.0.update.mixing_matrix f4 [3, 3]
000000 9b 6e 79 bf 27 a2 39 bf 1d 91 5e 3e 51 81 53 3e
       -0.97434396 -0.7251305 0.21735044 0.20654799
000010 fb 83 58 be 07 c0 b6 3d bf 67 a1 be 88 66 c0 3e
       -0.21144097 0.08923345 -0.31524464 0.37578225
000020 b4 84 db be
       -0.42874682

interactions.0.update.update_mlp.0.weight f4 [64, 128]
000000 e2 db f2 3d 4c 3f 12 3d ae b8 d8 bd d0 d9 0c be
       0.118583456 0.035704896 -0.105821 -0.13754964
000010 0f 65 2a be e4 e3 10 be 3f 83 2c be 94 31 be bc
       -0.16640113 -0.14149433 -0.16846941 -0.023217
000020 8a bb 11 3e 63 f0 0c be a0 73 a6 bd 04 f9 9c bd
       0.14231697 -0.13763575 -0.081275225 -0.076646835
000030 9c b9 88 bd 86 b1 44 bd 97 73 34 bc 76 ce 68 3d
       -0.06676027 -0.048020862 -0.011013887 0.05683752
000040 bd ab 34 bd 89 95 35 3e 30 78 98 bd d0 7d 38 3d
       -0.044109095 0.17732824 -0.07444799 0.04504186
000050 5e f6 c1 bd 35 ec 87 3d c8 a3 8f bd fd 0a 03 3d
       -0.09470819 0.0663685 -0.07013661 0.0319929
000060 f2 a4 ed 3d 4b cb a1 3d 89 e0 cb 3d 20 70 4a bd
       0.116037264 0.07900103 0.09954936 -0.049423337
000070 30 d5 88 bd 3a 3c d2 bc ce 82 47 3d a5 e5 8f 3d
       -0.06681287 -0.025663484 0.04870873 0.07026223
000080 b9 c3 e1 bd 34 e3 24 3e db ad 79 3c 16 03 e1 bc
       -0.11023659 0.16102296 0.015239204 -0.027467292
000090 31 74 c1 3d 52 50 b8 bd f9 64 f2 bd 29 67 0d be
       0.0944599 -0.08999695 -0.11835665 -0.13808884
0000a0 cf a8 2a 3d 62 41 0a 3e 73 fe 20 bd d6 0f 22 3e
       0.041664895 0.13501504 -0.03930516 0.15826353
0000b0 c5 ec c5 bc 14 5b b7 3d 0d 19 25 be 44 d6 dd 3b
       -0.024160752 0.08952919 -0.16122837 0.006769927
0000c0 0b ce 2f 3e 1f e8 c2 bd cd 64 04 be a3 d6 95 bd
       0.17168443 -0.0951693 -0.12929077 -0.07316329
0000d0 de 62 c7 3c 0d 8a 82 bd e7 53 2a 3e 33 d9 0b be
       0.024339136 -0.06373987 0.16633569 -0.13657074
0000e0 15 3a 72 3d d6 08 ba 3d 58 b2 07 3e 0b f8 cc 3d
       0.059137423 0.090837166 0.13251626 0.10008248
0000f0 2a 65 00 be e0 84 e4 bd 9b 99 9f 3d bc d6 cc bd
       -0.12538591 -0.111581564 0.0779297 -0.10001895
000100 e4 c6 16 3e 49 ee 19 3e 2b 17 ac bd fd cb a1 bb
       0.14724308 0.15032305 -0.084028564 -0.0049376474
000110 2d 90 fb 3b 58 96 55 3d 3d 35 30 bd f8 48 38 3d
       0.007677099 0.052145332 -0.043019522 0.044991463
000120 2a af c9 3d 4c 98 bf bd 16 08 23 be b8 4e c7 bd
       0.09847863 -0.0935522 -0.15921053 -0.09731811
000130 eb 94 06 be de 96 16 3e f3 34 32 be de 3f 5a bd
       -0.13142745 0.14705989 -0.17403011 -0.053283565
000140 2c 1b 20 be 9d 82 de bd 1f b1 d0 3d 9a 5d 32 be
       -0.15635365 -0.10864756 0.10190033 -0.17418519
000150 01 2a b2 3d bf 2c 98 bc 14 de e6 3d a4 e5 37 be
       0.08699418 -0.018576024 0.11272827 -0.17958695
000160 16 2c 77 3d 6a 43 e4 3c 4a 9c 39 be 46 b4 fb bd
       0.060344778 0.027864177 -0.18126026 -0.12290244
000170 a9 84 07 3e 73 a6 b7 bd b9 70 38 bd 71 c2 43 be
       0.132342 -0.089672945 -0.045029376 -0.19117142
000180 90 bf 8b bd 95 e5 27 3e 8d 2e 1b bd e9 18 47 be
       -0.06823647 0.16396172 -0.03788619 -0.19443096
000190 ad 98 0c be 63 a9 90 3d de 8f 52 3d 8e 06 19 be
       -0.13730116 0.07063558 0.051406734 -0.14943907
0001a0 77 9e f9 bc 06 e1 cf 3d 0f cb 0a 3e bb a5 ef bc
       -0.03047107 0.10150342 0.13554023 -0.029253831
0001b0 1f d3 13 be 98 0d 18 be 6c 98 27 be 6d 39 09 bc
       -0.14436005 -0.14848936 -0.16366738 -0.008375508
0001c0 26 81 de bd 22 94 22 be 0b 4b 90 3d 99 d0 0c 3e
       -0.10864477 -0.1587682 0.07045563 0.13751449
0001d0 42 d6 8f bd 7c 65 25 be 54 7f 4f be 5e 4b 01 be
       -0.07023288 -0.16151994 -0.20263416 -0.12626407
0001e0 82 57 aa bd 37 c7 04 be 2a 2a ab bd 03 b8 e3 3b
       -0.08317472 -0.1296662 -0.083576515 0.006949426
0001f0 f3 e7 c9 3d 00 c2 7d 3d be 35 df 3d d4 0c 86 3d
       0.09858694 0.06195259 0.108989224 0.065454155
000200 2f fe 6f 3d e0 dc 3a 3d c5 01 32 be 37 62 cb 3c
       0.058592018 0.0456208 -0.17383488 0.024827106
000210 7a 4e db bd cf 49 22 3e d6 35 29 3d cc 21 4f bd
       -0.107083276 0.15848468 0.041311108 -0.05056934
000220 5f f5 c5 3d 12 05 89 bd ad 20 84 bd 23 fd 0b 3e
       0.096659414 -0.0669042 -0.06451545 0.13670783
000230 37 46 f3 3d 67 7f 12 3e 95 61 2d be 79 44 36 be
       0.11878627 0.14306413 -0.16931756 -0.17799558
000240 71 45 2c be ca 86 4b 3d 7c 7a ff 3c b7 39 a2 3d
       -0.16823365 0.04968909 0.031186335 0.079211645
000250 bb 2d 4b bc 74 e3 d0 3d b4 4a b2 3c c2 fa 2d 3e
       -0.01240104 0.10199633 0.021764137 0.16990188
000260 3d 8f dd bd ca 54 45 be ba 93 db bd e0 17 2a 3e
       -0.10818336 -0.19270626 -0.10721536 0.1661067
000270 f4 a5 18 be f7 6e 04 be 5c da 28 be 6a c1 05 3e
       -0.14907056 -0.12932955 -0.16489547 0.13062063
000280 46 2a f6 bd e3 72 07 bc ff 89 c0 3d f4 fa ae bd
       -0.12019782 -0.008267137 0.09401321 -0.08543959
000290 c5 e7 d9 bd b7 17 dd 39 27 23 c1 3d f4 8d 1b 3e
       -0.1063991 0.00042170074 0.09430533 0.1519087
0002a0 53 f5 e6 3d 0f 5f ab 3d bf 3e 22 3e cb e1 f6 3d
       0.11277261 0.0836774 0.15844248 0.12054785
0002b0 d7 0e f3 3d 5f a9 c3 3d 13 18 18 3e a9 03 34 be
       0.11868065 0.09553789 0.14852934 -0.17579521
0002c0 c1 9a d0 bc b0 fb b7 3d 89 80 69 3c 2e 38 d7 3d
       -0.025464417 0.089835525 0.014251837 0.10508762
0002d0 6f 97 b1 bd 03 de 06 bd a9 41 d4 3d 2b e3 a3 3d
       -0.08671462 -0.03292657 0.10364086 0.08002313
0002e0 66 2d 3e bd f8 41 11 3d 4d 0f 12 be 18 28 30 be
       -0.046430014 0.035463303 -0.1426365 -0.17202795
0002f0 34 f6 1f be a7 be 39 3d e4 89 c2 bc d2 05 1c be
       -0.15621263 0.045347836 -0.023747392 -0.15236595
000300 ef 96 03 be d2 15 51 be 48 b4 23 3e b0 04 5c bd
       -0.12850545 -0.2041848 0.1598674 -0.053715408
000310 7c 10 25 be d1 cc cd 3d 30 a4 d8 3c 59 42 39 bc
       -0.1611957 0.10048831 0.026445478 -0.011307322
000320 02 af 05 3e 4d 5e 02 be de f0 3d be 4e 62 65 bd
       0.13055041 -0.12731285 -0.18548915 -0.056001954
000330 66 a7 9f bd 51 54 b5 bd 2f 5e 32 3d 85 5f 27 3d
       -0.077956006 -0.08853973 0.04354685 0.04086258
000340 02 63 15 3e cb bb ba 3c 3e b5 db bd 18 7f 91 3e
       0.1458855 0.022794625 -0.107279286 0.28417277
000350 91 30 b4 bd ec 34 4c 3d e8 bf c5 bd 97 bd 8a 3b
       -0.08798326 0.049855158 -0.09655744 0.0042340267
000360 4d 57 19 3e d7 eb 5f 3e b5 7e 7e ba 17 d0 e1 bd
       0.14974709 0.2186731 -0.0009708212 -0.11026018
000370 75 90 be 3c 47 17 26 3e b1 8f dd bd 9d 69 cb bd
       0.023262242 0.16219817 -0.108184226 -0.099322535
000380 68 7f 75 3d e5 0c cc bd f8 02 b1 3c 13 fe 2e 3e
       0.059935957 -0.09963397 0.02160786 0.17089109
000390 e9 62 11 3e f9 98 99 bc 0c 6e 98 3d 47 5d 75 3e
       0.14197887 -0.0187497 0.07442865 0.23961364
0003a0 a2 3c 0c 3e 35 0c 80 bc 99 a9 c6 bd 89 00 58 be
       0.13695005 -0.01563082 -0.09700317 -0.21093954
0003b0 fb 5e 41 be d8 17 07 3e 9b ea c1 3d f4 ae 10 3e
       -0.18883888 0.1319269 0.094685756 0.1412924
0003c0 52 f2 2c bd 71 ad 13 bd 9f f6 08 3e 43 9d 41 bd
       -0.042223282 -0.03605408 0.13375328 -0.047269117
0003d0 1f 9e f6 bd 42 2e 0e be 69 67 f1 3c 43 7a f1 bd
       -0.12041878 -0.13884833 0.029468255 -0.11790898
0003e0 00 5c 2c be c4 80 f0 3d 42 6b f4 bd 4e 4f 1f be
       -0.1683197 0.1174331 -0.1193452 -0.15557596
0003f0 3c 31 25 be 1d c6 36 3e 0d 4d 35 3e a6 d1 05 bd
       -0.16132063 0.17849012 0.17705174 -0.03267064

interactions.0.update.update_mlp.0.bias f4 [64]
000000 29 ad 27 39 80 db 21 bb 37 c6 a2 bc 5c cf 17 bc
       0.00015990868 -0.0024697483 -0.019869907 -0.009265747
000010 7b e7 0e 3c b0 85 51 bc c2 5f 11 3c bb 20 73 bc
       0.008722181 -0.012788221 0.008872928 -0.0148393465
000020 66 42 a7 3c 2b f4 63 bc 29 1f ed 3b 16 45 31 3c
       0.020417403 -0.013913195 0.0072363806 0.010819694
000030 6d e2 f9 3b bc 53 d1 bb ac b5 83 bc de 97 d1 3b
       0.007625869 -0.0063881557 -0.016077839 0.006396278
000040 e9 ec b5 bb ca de 3e 3c f1 5e 8f bc 7a 8e 60 3c
       -0.0055519235 0.011649797 -0.017501326 0.013705844
000050 05 66 09 bc a0 cd 47 bc b5 45 5b bc a9 65 18 bd
       -0.00838614 -0.012195021 -0.013383319 -0.037206326
000060 19 83 00 bc 32 0c d4 bb 96 80 82 3c 6e f3 68 3c
       -0.007843756 -0.0064711804 0.015930455 0.014218194
000070 4d d5 23 3c 7b aa 3b 3a fe 64 aa bb 42 3b 8d bb
       0.009999585 0.00071588875 -0.0052000275 -0.0043100426
000080 5b 58 31 3c 94 2f 2b bc 93 d7 36 3c 2b 51 d0 3c
       0.010824288 -0.010448355 0.011159795 0.025429329
000090 f9 0a 28 b9 c7 f1 d6 bb 3a 17 04 3c 37 c4 9c bc
       -0.00016025816 -0.006559584 0.008062178 -0.019136531
0000a0 a4 b5 66 bc 60 79 3b 3a 01 98 2e 3c ff 8e a3 bc
       -0.014081392 0.000715157 0.010656358 -0.019965647
0000b0 c2 c9 c7 3b 77 d7 89 3b d6 1e 4f 3c ce 48 2b 3b
       0.0060970495 0.0042065936 0.012641629 0.0026135924
0000c0 01 89 ab 3b 5a 98 80 bb 92 5e 55 bc 8d 8a 5a 3c
       0.005234838 -0.0039244117 -0.013023036 0.013338697
0000d0 6c 45 df bb 9f 44 aa ba 6d 21 ab 3c 3d 02 07 bb
       -0.0068136957 -0.0012990421 0.020889962 -0.00206007
0000e0 f4 d1 5b 3c 50 10 3b bb 13 fc 58 3c a2 9b 4a 3c
       0.013416756 -0.0028543659 0.013243693 0.012366207
0000f0 39 65 f3 bc e6 6f 16 3c 95 6c 99 3c 27 fb 86 bc
       -0.029711353 0.009181952 0.018728534 -0.01647718

interactions.0.update.update_mlp.2.weight f4 [192, 64]
000000 0b 8a 64 3d 3e a7 e7 bd 99 19 fb 3d 26 00 3a 3e
       0.05579571 -0.11311196 0.12260742 0.18164119
000010 a5 66 8e bd 6e 86 01 be d9 67 80 bd ab 43 8e bc
       -0.06953172 -0.12648937 -0.06269807 -0.017366251
000020 26 45 93 bd ca 8c 9c bd 2a a5 b9 bd 43 b0 1a be
       -0.071909234 -0.07644041 -0.09064706 -0.15106301
000030 54 94 60 bd 56 e6 c4 3d a8 2a 2a 3e a3 8b 73 bd
       -0.054828957 0.096142456 0.16617835 -0.05945934
000040 29 0d dc 3d dc 4d 18 be 9a 8d 13 3e 10 50 13 3e
       0.107446976 -0.14873451 0.14409485 0.1438601
000050 0f f4 55 3d ba 79 65 bd a3 ed 0a 3e 09 e4 89 3d
       0.052234706 -0.05602429 0.13567214 0.067329474
000060 f5 22 a0 bd 4c 7a 91 bd 4d ac 29 be 14 5e 5e 3c
       -0.078191675 -0.071034044 -0.16569634 0.013572235
000070 35 56 7d 3c b7 84 9d 3d 9c 5d d6 3d b4 01 14 be
       0.015462448 0.07691329 0.10467073 -0.14453775
000080 c8 a7 7a 3d 94 7b 3d 3d 4b 6a e9 3d 33 00 68 bd
       0.061195165 0.04626043 0.11397227 -0.056640815
000090 04 23 a2 bd 13 18 0a 3e 2c 45 70 3d a2 ad 34 3d
       -0.07916835 0.13485746 0.058659717 0.0441109
0000a0 fe 8d 1e 3e 55 11 2a be 55 ab f2 bd 36 d9 d8 3d
       0.15483853 -0.16608174 -0.11849085 0.10588305
0000b0 49 3d 9a bc 6d 13 1a 3e d8 5f c8 bd 7e a7 08 3d
       -0.018828051 0.15046473 -0.09783906 0.033362858
0000c0 e9 fc 89 bd 68 3f cf bd c7 17 98 3d 9a d7 bd bd
       -0.06737692 -0.10119516 0.0742641 -0.09269638
0000d0 9e 01 3d 3e 3d 71 d9 3d 61 ef d3 bd 95 38 77 bd
       0.18457648 0.106173016 -0.10348392 -0.060356695
0000e0 fc 3c c1 bc 68 f7 f4 ba ce 45 f8 3c b6 65 93 bd
       -0.02358865 -0.0018689455 0.030306723 -0.07197134
0000f0 0f 14 08 bd 3c 83 e0 3d 76 77 bb bc 15 47 16 3d
       -0.033222254 0.10962531 -0.022884112 0.036688883
000100 47 70 33 bd ae 99 e3 bc 09 28 cf bd ce 5d 0d be
       -0.043808248 -0.027783241 -0.10115058 -0.13805315
000110 f5 21 ff 3d 77 2c 96 3b d7 95 3b bd 58 2b 13 bd
       0.12457649 0.0045829373 -0.045797195 -0.035930008
000120 e0 3f de bd 95 ff c9 bc 80 7e 6e 3d 64 bb 54 3d
       -0.10852027 -0.024658004 0.05822611 0.051936522
000130 35 dc 1d 3e 5e a0 4a 3d d9 b8 5f 3d c5 96 0d 3e
       0.15416034 0.049469344 0.054619644 0.13827045
000140 72 ee b9 3d 81 e1 e6 bb 87 48 88 bd ff 18 4e 3d
       0.09078683 -0.007045925 -0.066544585 0.050316807
000150 5f 2a 18 3e e5 30 1a 3e 76 a2 14 bd 4f 05 00 3e
       0.14859913 0.15057714 -0.036287747 0.12502025
000160 d7 de 86 3d bc 55 90 3d 66 f6 cb 3d 2b ba 1d 3d
       0.06585472 0.070476025 0.09959106 0.03850762
000170 25 09 c8 3c 52 38 a7 bd fe 4b e3 3c ca 0c 88 3d
       0.024418423 -0.08165039 0.027746197 0.06643064
000180 71 9b 48 bd 62 33 12 bd 40 7c 23 be 4f 67 96 3d
       -0.048976365 -0.035693534 -0.15965366 0.07343923
000190 e5 13 15 3e 22 e5 8d 3d df 6f 24 bd e4 50 b3 bb
       0.1455837 0.06928469 -0.04014575 -0.0054722894
0001a0 49 0d 13 bb 25 1d 04 3d 21 af c1 3c 3c b8 c2 3d
       -0.0022438338 0.032254357 0.023643078 0.09507796
0001b0 24 5f 5a bc af 64 a0 3c 09 67 28 3d e1 7e 9a bd
       -0.013328347 0.01957926 0.041113887 -0.075437315
0001c0 89 fd 7b 3d 5f 15 ff bc cd 03 25 3d 20 4d b0 bd
       0.061521087 -0.03113812 0.040286828 -0.086084604
0001d0 33 1a ae 3b 37 6a b0 bd 6e 03 25 be ff 79 2a 3c
       0.005313182 -0.08614009 -0.1611459 0.010405063
0001e0 ab 60 d3 bd 56 cc 06 be 49 b9 44 3d 81 4a 0a be
       -0.10321172 -0.13163885 0.048028264 -0.13504983
0001f0 f4 a1 ab bd 30 26 e1 3d 98 c8 c6 bc 5f a8 bc 3d
       -0.083804995 0.10993612 -0.024265572 0.09211802
000200 79 f3 f3 3d 65 6e f0 bd 86 ab c8 bd 2c c2 3e 3d
       0.11911673 -0.11739806 -0.097983405 0.046571895
000210 64 ca 8a bd 44 b8 dd bd b3 1c 13 be 91 74 47 3d
       -0.06776884 -0.108261615 -0.14366417 0.04869515
000220 ab e1 00 3d 48 b5 d9 bb 53 b3 8e bd ef 72 09 3d
       0.031465214 -0.006643925 -0.06967797 0.033556875
000230 d3 2a ea 3d ea 5b 7a bd 9c a4 7e 3d 0d 9d 77 bd
       0.11433949 -0.061122812 0.062168702 -0.06045251
000240 c1 68 78 bd 29 b7 f9 3d 0c 09 63 bd 5c 58 fe 3d
       -0.060646776 0.12193138 -0.05542855 0.12419197
000250 9a 87 0a 3e 5b 30 db bc 99 25 6b 3d f5 8b 81 bd
       0.1352829 -0.026756456 0.057408903 -0.06325523
000260 61 08 0a 3e bf 09 4a bd 37 f6 93 3d ff c4 be bd
       0.13479759 -0.0493257 0.07224696 -0.09314918
000270 7f b5 bd 3d 06 48 87 bc 67 ec 0a 3e 21 60 ed bd
       0.09263133 -0.016513836 0.13566743 -0.11590601
000280 3f da 10 bb 9a 17 e1 bd 95 16 c4 3c e1 d6 fc 3d
       -0.002210274 -0.1099083 0.02393655 0.123456724
000290 ae ee 03 be e6 b9 b3 bd 8e 10 d1 bc fe 11 0e 3e
       -0.12884018 -0.08775692 -0.02552059 0.13874051
0002a0 ed 15 6c 3c 64 38 dd bc e0 ac 58 3d fb 60 ca 3d
       0.014409524 -0.027004428 0.05289924 0.09881779
0002b0 fd 7e a8 3d da 01 e0 bd c9 84 39 3d 7d 85 e4 bd
       0.08227346 -0.10937853 0.04529265 -0.11158273
0002c0 a2 88 ac 3c 50 69 0c bd 96 51 05 3e ec ea f7 bc
       0.021061245 -0.03428012 0.13019404 -0.030263387
0002d0 eb c6 0f bd 16 e0 48 bd 0f d6 14 bd 76 39 e6 bc
       -0.035101812 -0.04904183 -0.036336955 -0.028103571
0002e0 78 f6 b0 3d 17 46 13 be 14 5e 09 be ca 91 01 be
       0.0864076 -0.14382206 -0.13414794 -0.1265327
0002f0 17 dc 86 bd d0 c1 8f bd 12 35 f9 3d 0e 04 ac bc
       -0.065849476 -0.07019389 0.121683255 -0.020998027
000300 e1 a7 1c 3c 94 39 1c 3e aa 27 af bd 31 c7 52 bc
       0.00956151 0.1525634 -0.08552487 -0.012864874
000310 56 39 e9 bd 1b c5 55 3c 0f a4 d0 ba 5c dd b1 3c
       -0.11387889 0.013047482 -0.0015918034 0.021711998
000320 c3 26 1c 3e 60 75 41 bc b7 ce 2d 3e 24 09 20 3c
       0.15249161 -0.01180777 0.16973387 0.009767804
000330 b4 fe 18 be 3e 80 93 3c 12 20 71 3d 81 9f d7 3b
       -0.14940912 0.018005487 0.058868475 0.0065802936
000340 56 e3 0f be 8e 85 80 bd 6c b5 ed bd 66 d8 a5 bb
       -0.14051566 -0.062754735 -0.11606869 -0.005061197
000350 fa 80 18 3c 64 0b 14 3e 0e 48 99 bd f4 5c 3e 3d
       0.009308094 0.1445747 -0.074844465 0.046475366
000360 23 0f 04 be 40 13 9f 3d 88 18 9b bb ee 03 73 3d
       -0.12896399 0.077673435 -0.004733149 0.05932992
000370 47 f6 95 bd 39 72 97 3d ba a7 c6 bc 02 0b 0c 3d
       -0.07322364 0.07394833 -0.0242499 0.034190185
000380 62 0f 10 3e ef aa 68 bd 55 2c 06 bd ed 6e 5c bb
       0.14068368 -0.05680364 -0.032757122 -0.0033635453
000390 d8 08 25 3d 17 fb d4 bd 84 c3 93 3c d9 77 a2 bd
       0.040291637 -0.10399454 0.018037565 -0.079330154
0003a0 80 15 03 3e d8 91 a7 3c 73 a7 ab bd ec 32 7a 3c
       0.1280117 0.020455286 -0.08381548 0.01527093
0003b0 0d 35 03 be 70 05 a4 bd aa 4b 2d 3d 34 bf 11 be
       -0.12813206 -0.080088496 0.042308487 -0.14233094
0003c0 c5 bb f2 bd 16 08 93 bd 0c 7b 04 be be db 78 bc
       -0.118522204 -0.07179277 -0.12937564 -0.015189109
0003d0 5c 88 cd 3d 5b ca 14 3e 6d c3 07 be 87 52 e7 3d
       0.10035774 0.14530317 -0.13258143 0.11295038
0003e0 e5 a4 0e 3d e2 d4 0b 3e 09 8e 0d bc eb 34 b5 bd
       0.034825224 0.13655427 -0.008639821 -0.08847984
0003f0 d3 0f d1 3d d6 30 0d 3d 64 7e 90 bc e3 09 d6 3c
       0.10208096 0.0344704 -0.017638393 0.026127761

interactions.0.update.update_mlp.2.bias f4 [192]
000000 8f f0 60 bc 64 d3 bd 3b 37 07 21 3c 84 cc 35 bc
       -0.013729229 0.005793022 0.00982838 -0.011096124
000010 36 dd 89 bc 20 2b 75 bc dd ef 32 3b 91 17 96 3c
       -0.016829114 -0.014963895 0.0027303614 0.018321784
000020 d5 e9 43 3c 03 89 96 3c 4a 1a 84 bc 70 28 a4 3c
       0.011957605 0.01837588 -0.016125817 0.020038813
000030 50 1f 99 bc 04 6d 0d bc 6f 25 58 3c 5f 16 09 3c
       -0.018691689 -0.008631948 0.013192519 0.00836715
000040 08 2a 50 3c d0 ce 44 bc af 34 e1 bb 54 90 46 3c
       0.0127053335 -0.012012199 -0.0068727355 0.012119371
000050 4a d8 f5 3b 8c 04 23 3c 16 47 99 bb 77 ec 87 3c
       0.0075025903 0.0099498145 -0.0046776636 0.016592247
000060 1d b2 ce bc 86 3a e9 bb 6b 63 e7 3a e5 52 e8 3b
       -0.025231415 -0.0071175722 0.001765353 0.00708996
000070 51 7f 61 3a 98 34 e8 3b 62 dd cd b9 57 9e b8 bc
       0.00086020405 0.007086348 -0.0003926559 -0.02253644
000080 c3 a7 82 bc c3 5e 9d bc 10 b1 28 3c e0 91 bc 3c
       -0.015949136 -0.019210225 0.010296121 0.023018777
000090 da 50 1f bc 6f 08 91 3b 65 de 68 3c 43 ea 94 3c
       -0.009723866 0.004426054 0.014213179 0.018178111
0000a0 8b ea ac 3c a1 93 ad bc 53 ab b7 bc 67 70 81 bc
       0.021107933 -0.021188559 -0.022420561 -0.015800668
0000b0 c8 f4 53 3b a8 69 f1 3b ab ec 2c bc 41 95 7d 3c
       0.0032341946 0.0073673315 -0.010554473 0.015477479
0000c0 20 dd c8 3c cf 90 87 bb dc 0b 5f 3c d3 a1 b5 3c
       0.024519503 -0.0041371356 0.013613667 0.02217189
0000d0 c9 56 0d 3c 71 f5 90 3b 65 42 79 bc 08 e3 bc 3c
       0.008626648 0.00442379 -0.015213584 0.023057476
0000e0 ce a3 d9 bc c8 fe 33 bc 15 b5 3e bc cb bb 4c bb
       -0.026567366 -0.010986038 -0.011639853 -0.0031239863
0000f0 48 63 8c bc d4 da a2 bc c2 6e ac 3c 30 e9 ac bc
       -0.017137185 -0.019879736 0.021048907 -0.021107286
000100 2a f2 84 3a e6 ac ef 3c 86 6a 52 bc 78 fc ac 3b
       0.0010142971 0.02925725 -0.01284278 0.00527912
000110 6a d5 d6 3b a2 fd 98 3d 53 d0 0c 3e 32 50 34 bb
       0.0065562027 0.074702516 0.13751344 -0.002751362
000120 d3 a6 2e 3c 31 6f 89 3c 08 54 b7 bc 96 cf 67 bc
       0.010659891 0.016776653 -0.022378936 -0.014148613
000130 0d 83 ed bc 6d ef 87 bb a9 bf 03 3d 33 cf 67 3d
       -0.028993154 -0.004148415 0.032165203 0.056594085
000140 e8 34 ab bb fd 8b e2 b9 21 9d 14 3d 5b 63 d5 3d
       -0.005224813 -0.00043210378 0.036282662 0.10419341
000150 58 df a5 bc b1 e1 8c 3b bd 62 28 bd 10 b6 1e 3b
       -0.0202481 0.0042993654 -0.04110979 0.0024217404
000160 ac ea f4 39 a5 a2 9c bd bd b3 be 3b f7 6d 47 bd
       0.0004671415 -0.076482095 0.0058197663 -0.048688855
000170 df 91 24 bc bd db 11 3c ce 2f fa 3c 89 f1 0a 3b
       -0.010044544 0.008902487 0.030540373 0.0021201095
000180 1e c0 12 3c c9 79 dc 3b 55 14 ac 3d 00 9f d2 3c
       0.008956937 0.006728385 0.084023155 0.025710583
000190 70 e4 00 3d 19 59 84 bc e2 8c 69 bb 40 7b d1 3c
       0.031467855 -0.016155766 -0.0035636951 0.025571465
0001a0 f7 c9 dd 3c 8b 0d be bd 69 90 11 bc d9 8b a9 bb
       0.027073843 -0.09279927 -0.008884528 -0.005174142
0001b0 cc a8 0a bc 40 97 43 bc f1 79 12 bb fd 04 9d 3d
       -0.008463096 -0.011937916 -0.0022350515 0.07666967
0001c0 6a ef 89 3d 7f 79 f5 3c f5 08 b7 bc 7d 47 f2 bc
       0.06735118 0.02996516 -0.022343138 -0.029575104
0001d0 f4 8d 21 3c 3a 1d 9b 3c f0 e9 bf bb e2 57 f0 bb
       0.009860504 0.018934835 -0.005856745 -0.007334695
0001e0 e9 35 33 bc d5 f1 88 bd 43 5f f7 bb 34 67 0b 3b
       -0.010938146 -0.06686751 -0.007549198 0.002127123
0001f0 a2 ff 9b 3b 97 ba 8c bd 4e e3 03 bc db f5 5d bc
       0.0047606984 -0.06871527 -0.008049799 -0.013547386
000200 e4 19 c0 3b ad 69 fb 39 24 28 e7 3a 72 9c 94 3c
       0.0058624614 0.00047953185 0.0017635864 0.018141005
000210 b5 68 57 bb 8b c8 99 bd a6 32 5d bd e0 f4 92 3c
       -0.0032868807 -0.07508954 -0.05400338 0.017939031
000220 e5 cc dc 3a d2 c0 36 bc 1a b2 87 3c dd 12 9d 3c
       0.0016845731 -0.01115437 0.016564418 0.019174034
000230 52 aa 13 3d f6 da a6 3b a7 f1 96 bb a9 cd 25 bd
       0.036051102 0.00509202 -0.004606444 -0.040479336
000240 d0 35 dd 3b 20 57 0f 3b 57 09 a4 bc 44 3e 01 3c
       0.0067507997 0.0021872 -0.020023985 0.00788838
000250 47 79 0b bd f6 3f f6 bb 1d f9 9e 3c 85 e4 d8 ba
       -0.034051206 -0.007514949 0.019405896 -0.0016547596
000260 98 4d 1d bd 90 86 43 3c b1 45 5d 3c ee 0b 5a 3c
       -0.038404077 0.011933938 0.013505385 0.013308508
000270 55 c7 6c 3b f8 71 8d 3c f1 0d c5 bb f9 88 fc bc
       0.0036129553 0.017266259 -0.006013625 -0.030827032
000280 4f f8 37 bc 00 a8 83 bb 0c eb 3c 3c 43 a3 c3 b9
       -0.011228635 -0.00401783 0.011530649 -0.00037314938
000290 a9 28 85 bc e8 e3 38 3c 99 3a 8d 3c 98 e0 09 bd
       -0.01625474 0.011284806 0.017239856 -0.033661455
0002a0 46 5b 71 bb 37 95 a8 bc 75 af 20 bb 0d 03 91 bc
       -0.0036828085 -0.020578964 -0.0024518643 -0.01770165
0002b0 d4 2e 9c bc 66 30 d0 3b 7a 4a d0 bb d4 fa 46 3c
       -0.019065298 0.006353426 -0.0063565345 0.012144763
0002c0 d9 df 67 bc a1 d2 3b bc 02 9b c1 3c 5b 89 96 3c
       -0.0141524905 -0.011463792 0.023633484 0.018376043
0002d0 a8 0d 90 bb b0 68 02 bc fa 0a bf 3b fd be 1e 3c
       -0.004396159 -0.00795953 0.005830166 0.00968909
0002e0 7f ab 15 3d 6e 28 8b 3c cf d1 88 bb 05 07 bb bc
       0.036540505 0.016987052 -0.0041754018 -0.022830496
0002f0 c5 f7 41 3a 20 92 2e 3d df 23 05 3d 80 1c c2 bc
       0.0007399286 0.042619824 0.032504912 -0.02369523
