benchmarks/ultra_tiny_model.onnx (onnx, 135523 bytes, 25 tensors)

embedding.weight f4 [101, 32]
0	0xbfbd468e	-1.4787157
1	0x3faaafe8	1.3334932
2	0xbfaf45e4	-1.3693204
3	0xbfc1fccb	-1.5155271
4	0x3f254d0f	0.6457071
5	0xbf8716da	-1.0553849
6	0xbfb845ed	-1.439634
7	0x3deab8f4	0.11461058
8	0x3fcf2383	1.6182712
9	0x3fbfa353	1.4971718
10	0x3fb36c99	1.4017516
11	0xbf7c9939	-0.986713
12	0xbfabdcda	-1.3426774
13	0xbf28cc68	-0.659369
14	0xbd5fa1e8	-0.054597765
15	0x3d0870f8	0.03331086
16	0x3fb69888	1.4265299
17	0xbea72e3e	-0.32652467
18	0x3f0d1818	0.5511489
19	0x3ee9b1df	0.45643517
20	0xbfc821d3	-1.5635322
21	0x3f9d7940	1.2302628
22	0xbf8657b7	-1.0495518
23	0xbfa6fe6c	-1.3046393
24	0xbe9d4e66	-0.30723876
25	0xbf253209	-0.6452947
26	0x3f192818	0.59826803
27	0x3e94bb4b	0.29049143
28	0x3f627695	0.8846219
29	0x3fbf80fd	1.4961239
30	0x3f656c5e	0.8961848
31	0xbf8daecf	-1.1068972
32	0x3fb5e50e	1.4210527
33	0xbf7f6f69	-0.99779373
34	0xbe5e2cf2	-0.21696833
35	0x3f6349bf	0.887844
36	0xbf74e148	-0.9565625
37	0x3f83f760	1.0309868
38	0x3f7fa497	0.9986052
39	0xbf4915d6	-0.78548944
40	0x3f916c73	1.1361221
41	0xbfd6735d	-1.6753956
42	0xbfaba907	-1.3410958
43	0x3fa5bff5	1.2949206
44	0x3f4583c5	0.7715419
45	0x3e837822	0.25677592
46	0x3e76c687	0.2409917
47	0xbf769429	-0.96319824
48	0x3fc03779	1.5016929
49	0xbdebbc2e	-0.11510502
50	0x3e5b1281	0.21393777
51	0x3fd59e70	1.6688976
52	0xbfdd7ab4	-1.7303071
53	0x3f27bfad	0.6552685
54	0x3dccbbbb	0.09996744
55	0xbefa338d	-0.48867455
56	0xbf96831c	-1.1758761
57	0xbfd0b77e	-1.6305997
58	0x3fa55acd	1.2918335
59	0x3e135798	0.14388883
60	0xbfdba4ac	-1.7159629
61	0x3fc96021	1.5732461
62	0x3fa67a86	1.3006141
63	0xbd9d978a	-0.076949194
64	0xbdfeb407	-0.12436681
65	0x3fb23771	1.3923169
66	0x3f92fa06	1.1482551
67	0x3fbcdd57	1.4755048
68	0x3fce349b	1.6109804
69	0x3f99dda1	1.2020761
70	0xbc768955	-0.015047391
71	0xbfa464de	-1.2843282
72	0x3fb06f74	1.3784013
73	0x3e7666e8	0.24062693
74	0xbfd329b6	-1.6497104
75	0xbe428abd	-0.18998237
76	0xbfac52d0	-1.3462772
77	0xbfa500b5	-1.2890841
78	0x3fdb462b	1.7130789
79	0x3f8fa354	1.1221719
80	0xbf6cbe3b	-0.9247777
81	0xbea5d598	-0.32389522
82	0x3eb1406e	0.34619468
83	0x3caea03b	0.021316638
84	0xbf098dbe	-0.53731906
85	0xbf62c537	-0.88582176
86	0x3ef2dc2e	0.4743361
87	0xbe71d279	-0.23615445
88	0xbf9abe96	-1.2089412
89	0xbec1519e	-0.3775758
90	0x3fa7bba5	1.310414
91	0x3d74eb97	0.05979499
92	0xbfb97d16	-1.4491298
93	0xbf9aa189	-1.2080547
94	0xbf4f81e7	-0.8105759
95	0x3e2f1123	0.17096381
96	0xbf224848	-0.6339154
97	0xbf15a452	-0.5845386
98	0x3fbdbb31	1.4822751
99	0x3f9037ed	1.1267067
100	0x3f892d8c	1.0717025
101	0xbf0c7da8	-0.54879236
102	0x3f201a05	0.625397
103	0xbfa77cfc	-1.3085017
104	0xbf8dc7c3	-1.1076587
105	0x3f26f9a2	0.6522466
106	0xbf95bb44	-1.1697774
107	0x3f8201e9	1.0156833
108	0xbf0f7ee0	-0.5605297
109	0xbf7be9fd	-0.9840391
110	0x3fbd62a0	1.4795723
111	0xbfcb2346	-1.587014
112	0x3f80b39c	1.0054812
113	0xbfd964f8	-1.6983938
114	0xbf94706e	-1.1596811
115	0x3f0173a0	0.50567055
116	0xbd15dd93	-0.036588263
117	0xbf244da3	-0.64180964
118	0xbfbb956d	-1.4654976
119	0xbf825818	-1.0183134
120	0xbee8906e	-0.4542269
121	0xbf5e7e50	-0.8691149
122	0xbf076da3	-0.5290167
123	0xbf74b8e6	-0.9559463
124	0x3e273eff	0.16332625
125	0x3fc62059	1.5478622
126	0xbea52161	-0.3225203
127	0xbfc874a0	-1.5660591
128	0xbf872705	-1.0558783
129	0xbfbf56f9	-1.4948417
130	0xbf9395a5	-1.1530043
131	0x3fc4d76a	1.5378239
132	0xbfbe2968	-1.4856386
133	0xbf84b249	-1.0366908
134	0x3fa53bd3	1.2908882
135	0x3f33037e	0.69927204
136	0xbf2a5f8e	-0.66552055
137	0x3f54b3b6	0.8308672
138	0xbfdcaa29	-1.7239429
139	0x3fbcc909	1.4748851
140	0x3fb80466	1.4376342
141	0x3f833b34	1.0252442
142	0x3f437712	0.7635356
143	0x3f72a4ee	0.9478291
144	0xbe72c843	-0.23709206
145	0x3fd6c70f	1.6779498
146	0x3f81ae1f	1.0131263
147	0x3fd58172	1.6680129
148	0x3f6adfe3	0.91747874
149	0xbec56bd6	-0.38558835
150	0xbfc88f4c	-1.5668731
151	0x3f1940c3	0.59864444
152	0x3ec3c128	0.38233304
153	0xbf21b57a	-0.63167536
154	0x3fc2a2b2	1.5205901
155	0x3d5a9788	0.053367168
156	0x3da57e12	0.08080687
157	0xbfcd2da0	-1.6029549
158	0xbf3e700f	-0.7438974
159	0x3faff362	1.374615
160	0xbea749be	-0.32673448
161	0xbf82672e	-1.0187738
162	0xbf99dcd8	-1.2020521
163	0xbf28e40f	-0.6597299
164	0x3f9ca694	1.2238336
165	0xbf757e53	-0.9589588
166	0x3f19ad16	0.60029733
167	0xbc3f65fc	-0.01168203
168	0x3e7606f1	0.24026085
169	0x3d7b9425	0.06142058
170	0x3f4def4c	0.80443263
171	0xbdb48e97	-0.08816259
172	0xbfcafe92	-1.5858939
173	0x3fc59e7d	1.5438992
174	0x3f85e4b6	1.0460422
175	0x3f8e1630	1.1100521
176	0xbc8423d1	-0.01613036
177	0xbf1a03a9	-0.60161835
178	0xbfc79a4e	-1.5593965
179	0xbfb46afd	-1.409515
180	0xbeffb76d	-0.4994463
181	0x3fb5903f	1.4184645
182	0x3f9de41c	1.2335238
183	0xbf38ed36	-0.72236955
184	0xbf68b2aa	-0.9089762
185	0xbe85104c	-0.25988996
186	0x3f12e46f	0.5737981
187	0x3f716936	0.94301164
188	0xbfcccae6	-1.599942
189	0xbfdb8393	-1.7149528
190	0x3fb7c853	1.4358009
191	0x3f9ddb8d	1.2332627
192	0xbfcfb332	-1.6226561
193	0x3f8e71c5	1.112847
194	0x3fabab3c	1.3411632
195	0xbfde26d1	-1.7355596
196	0xbfbe6c9d	-1.4876896
197	0x3fbd6979	1.4797813
198	0xbfdb4c90	-1.713274
199	0xbf0a62d8	-0.54057074
200	0xbfc6cb6b	-1.5530828
201	0x3fbe44c6	1.4864738
202	0x3f8bef4f	1.0932406
203	0xbf834698	-1.0255919
204	0xbf515dc7	-0.8178372
205	0xbedfee01	-0.4373627
206	0x3f756ddc	0.9587076
207	0xbf387c30	-0.72064495
208	0xbf8fc4c0	-1.1231918
209	0xbf6841bf	-0.9072532
210	0xbe8fd6d9	-0.28093603
211	0xbeecd143	-0.46253404
212	0xbf80d2ae	-1.0064294
213	0xbe1c23ce	-0.15248033
214	0x3fb5d998	1.4207029
215	0x3fac849e	1.3477972
216	0x3fb128e2	1.3840601
217	0xbe67c69b	-0.22634356
218	0x3fb5d823	1.4206585
219	0xbfa3bca7	-1.2791947
220	0x3f22cb29	0.6359125
221	0xbeee216e	-0.4650988
222	0xbeaa1390	-0.3321805
223	0xbf48ad94	-0.7838986
224	0x3df4e89d	0.1195843
225	0xbf0892f1	-0.53349215
226	0xbe4732e3	-0.19453005
227	0x3f94893f	1.1604384
228	0x3ec39875	0.38202253
229	0xbf3eafb9	-0.7448688
230	0xbfa36075	-1.2763811
231	0x3f8df240	1.1089554
232	0x3fdafb41	1.7107927
233	0x3f9661d0	1.17486
234	0xbf0a4d82	-0.5402452
235	0xbf31af8b	-0.6940848
236	0xbebd0bd2	-0.3692308
237	0xbd4277c9	-0.047477517
238	0x3e3ce21c	0.18445629
239	0x3e3085e2	0.17238572
240	0x3f00ec8d	0.5036095
241	0xbda4baca	-0.0804344
242	0x3f40bc67	0.7528748
243	0xbf0091dc	-0.50222564
244	0x3f62107a	0.8830639
245	0x3d9cce85	0.07656578
246	0x3f2d59f6	0.67715394
247	0xbf083f80	-0.53221893
248	0xbfd35eac	-1.6513267
249	0x3fa7f219	1.3120757
250	0xbfb09633	-1.3795837
251	0xbfa7173a	-1.3053963
252	0xbfa452d5	-1.2837778
253	0xbf59c23b	-0.85062
254	0xbf738a8b	-0.95133275
255	0x3f1fd70b	0.62437505

rbf.centers f4 [10]
0	0x00000000	0.0
1	0x3f0e38e4	0.5555556
2	0x3f8e38e4	1.1111112
3	0x3fd55556	1.6666667
4	0x400e38e4	2.2222223
5	0x4031c71c	2.7777777
6	0x40555555	3.3333333
7	0x4078e38e	3.8888888
8	0x408e38e4	4.4444447
9	0x40a00000	5.0

rbf.widths f4 [10]
0	0x3f000000	0.5
1	0x3f000000	0.5
2	0x3f000000	0.5
3	0x3f000000	0.5
4	0x3f000000	0.5
5	0x3f000000	0.5
6	0x3f000000	0.5
7	0x3f000000	0.5
8	0x3f000000	0.5
9	0x3f000000	0.5

interactions.0.message.rbf_to_scalar.0.weight f4 [32, 10]
0	0x3f1c4182	0.61037457
1	0x3eabf661	0.3358641
2	0x3e1a8142	0.1508837
3	0x3eaa9f47	0.33324644
4	0x3e9650d5	0.29358545
5	0x3dc9ab01	0.098470695
6	0x3c98040a	0.018556613
7	0x3e6f8ba1	0.23393108
8	0xbcc307ba	-0.023807395
9	0xbe124b1b	-0.14286463
10	0xba1c9c12	-0.0005974184
11	0x3e65c90c	0.22439975
12	0xbe07c4f3	-0.13258724
13	0xbe5923d4	-0.21205074
14	0x3d22b59a	0.03972397
15	0x3eb10798	0.34576106
16	0x3ddfdd5c	0.10930893
17	0xbe0fc3d6	-0.14039549
18	0x3ea8d3a8	0.3297398
19	0x3e69b799	0.22823943
20	0xbded1cfe	-0.115777954
21	0xbdfad7a6	-0.12248163
22	0x3e8db0e3	0.27674016
23	0xbd93bb98	-0.07213515
24	0x3eab7c41	0.33493236
25	0x3e9838fd	0.2973098
26	0x3e8aa44b	0.2707847
27	0x3e853c1f	0.2602243
28	0x3e143e98	0.14477003
29	0xbe8b4c19	-0.27206495
30	0x3f6b6dd1	0.9196444
31	0x3eb19033	0.34680328
32	0x3d4d77e8	0.05016318
33	0xbea94a11	-0.3306432
34	0x3ceaef43	0.028678542
35	0x3d3b12c1	0.045672182
36	0x3ab7bcee	0.0014018097
37	0xbe7426f4	-0.23842984
38	0xbe4e4d2b	-0.20146625
39	0xbe3accf2	-0.18242243
40	0xbefceb2a	-0.49398166
41	0xbec797cb	-0.38982996
42	0xbe901b96	-0.28146046
43	0x3e2c14a6	0.16804752
44	0xbeb382bd	-0.35060683
45	0xbc390bbf	-0.011294304
46	0x3e9a466c	0.30131853
47	0xbe03624e	-0.12830469
48	0x3ea4b598	0.32169795
49	0x3e973612	0.2953344
50	0xbebce92e	-0.36896652
51	0xbec911ed	-0.3927149
52	0x3ef6e9cd	0.4822525
53	0xbe927dd9	-0.2861164
54	0x3ea8f151	0.3299661
55	0x3ed217c0	0.41033745
56	0xbd8ffc69	-0.07030565
57	0x3e0ed201	0.13947298
58	0xbea5f18a	-0.32410842
59	0x3dade2c7	0.0849052
60	0xbeab0cad	-0.33408108
61	0xbde76704	-0.112989455
62	0x3ebbcddf	0.36680505
63	0xbe67015b	-0.22559111
64	0x3d17aad1	0.037028138
65	0xbea0a4ec	-0.31375825
66	0x3e3b2d5a	0.18279019
67	0x3e4b5480	0.19856453
68	0x3d3e1f90	0.04641682
69	0xbea7de2e	-0.32786697
70	0x3eda66a0	0.42656422
71	0x3f1b7ac5	0.60734206
72	0x3eb8f2cf	0.36122748
73	0xbe09bc82	-0.13450816
74	0xbe49f79c	-0.19723362
75	0x3d3f5161	0.04670847
76	0x3e16ca2c	0.1472556
77	0xbeae116a	-0.3399766
78	0x3de43271	0.111424334
79	0xbe6e49bc	-0.23270315
80	0xbed22b13	-0.41048488
81	0x3e9b4356	0.3032481
82	0x3eb03c8a	0.34421188
83	0xbd1dfe31	-0.038572494
84	0xbeaebb41	-0.34127238
85	0x3b91867b	0.00444108
86	0x3d9bb52e	0.07602917
87	0xbdd8535e	-0.10562776
88	0xbe3b1d45	-0.18272884
89	0x3d8faa83	0.070149444
90	0x3ea9b19b	0.33143315
91	0x3f03af06	0.5143894
92	0xbe87d576	-0.26530045
93	0xbe3caf78	-0.18426311
94	0x3eaa332d	0.3324217
95	0x3ccbe3b8	0.024888858
96	0xbd4df27c	-0.05028008
97	0xbdae6df6	-0.08517067
98	0xbcf80ded	-0.030280078
99	0xbe6d586d	-0.23178263
100	0x3de9b427	0.114113145
101	0x3ee5f2cb	0.449118
102	0xbe140b8a	-0.14457527
103	0x3ecab8bb	0.39594063
104	0x3e3e03ed	0.18556185
105	0x3d4dfe1c	0.050291166
106	0xbe83c492	-0.2573591
107	0xbe5a4892	-0.21316746
108	0xbe0cf6d7	-0.13766037
109	0xbc9574ca	-0.018244166
110	0xbeff6996	-0.49885243
111	0xbec0c407	-0.37649557
112	0x3c6a7722	0.01431063
113	0xbe89a333	-0.26882324
114	0xbc917bdb	-0.017759254
115	0xbc3f0d24	-0.011660848
116	0x3b71f54d	0.0036919892
117	0x3e1b1d9a	0.15148011
118	0xbec25e25	-0.37962452
119	0xbe9896a4	-0.2980243
120	0xbf4a4432	-0.7901031
121	0xbf216daf	-0.6305799
122	0xbe83b64f	-0.25725028
123	0x3e63a740	0.2223177
124	0x3db17eb7	0.08666747
125	0x3e913bb1	0.28365853
126	0xbe83edaa	-0.2576726
127	0xbed83fe1	-0.42236236
128	0xbd03a174	-0.032136396
129	0x3ec0f359	0.3768566
130	0xbf01c233	-0.5068695
131	0xbe9de8c7	-0.30841658
132	0x3ee6c890	0.45074892
133	0x3ea40da7	0.32041666
134	0x3eaf5825	0.34246936
135	0x3e0f27bb	0.1398
136	0x3e14e5e1	0.14540817
137	0xbe8773a5	-0.26455417
138	0x3e08849c	0.13331836
139	0xbd8c93c8	-0.068641245
140	0xbe846f42	-0.25866133
141	0xbd9367d2	-0.071975365
142	0x3e162605	0.14662941
143	0xbec6a6dc	-0.3879918
144	0x3eb0efd9	0.3455799
145	0x3d977e91	0.073971875
146	0xbe07f2a4	-0.13276154
147	0x3d851c80	0.064995766
148	0xbcb2910b	-0.021797678
149	0xbe0b8955	-0.13626607
150	0xbf3994a4	-0.7249243
151	0xbee0bd9c	-0.4389466
152	0x3dd68e04	0.10476306
153	0x3e0cec2b	0.13761966
154	0xbc193bec	-0.009352665
155	0xbeb4318f	-0.3519406
156	0xbdea21fc	-0.11432263
157	0xbe4a0e0f	-0.19731925
158	0xbea157db	-0.3151234
159	0xbe4d9aa2	-0.20078519
160	0xbf014567	-0.50496525
161	0xbec3f114	-0.38269866
162	0x3e1ec221	0.15503742
163	0xbe3c874d	-0.18410988
164	0xbd24c747	-0.04022911
165	0xbea94d73	-0.33066902
166	0x3db4f1ca	0.0883518
167	0x3dc6130d	0.096716024
168	0xbe517f4f	-0.2045872
169	0x3df6b6c7	0.12046581
170	0xbf0b50b7	-0.54420036
171	0xbe842c15	-0.25814882
172	0xbea5b3d9	-0.32363775
173	0x3eb26d4b	0.3484901
174	0x3e3be7e8	0.18350184
175	0x3d7ee137	0.0622265
176	0x3e6a0260	0.22852468
177	0x3ce9c4f6	0.028536301
178	0xbe4f5e94	-0.20250922
179	0x3de1799d	0.11009524
180	0xbee89745	-0.4542791
181	0xbe4633ea	-0.19355741
182	0x3d11ee9e	0.035627954
183	0x3dafbf43	0.08581402
184	0x3e573209	0.2101518
185	0xbe54feb8	-0.20800292
186	0xbe8ad468	-0.27115178
187	0xbcdcf3b9	-0.026971685
188	0x3d338fc2	0.04383827
189	0xbe29d249	-0.16584124
190	0xbeff4e47	-0.49864408
191	0xbf10cca1	-0.5656224
192	0xbd9fba0d	-0.07799158
193	0x3d5aa5f8	0.053380936
194	0xbea24cb7	-0.31699154
195	0xbe877878	-0.26459098
196	0x3e45e310	0.19324899
197	0xbe9e74ff	-0.30948636
198	0x3e8c884b	0.27447733
199	0x3cbf6be1	0.02336687
200	0x3f19fb9b	0.60149544
201	0x3eabd796	0.33562917
202	0xbad7b206	-0.0016456253
203	0xbe8baa6b	-0.27278456
204	0xbea0a180	-0.31373215
205	0xbc49083c	-0.01227003
206	0xbe8f7b2d	-0.28023663
207	0xbdea1377	-0.11429494
208	0xbd6fad50	-0.058514893
209	0xbe9c3331	-0.30507806
210	0x3eb35c2d	0.35031262
211	0x3ec48976	0.38386124
212	0xbe1f7796	-0.15572962
213	0x3e963e84	0.2934457
214	0xbe498717	-0.19680439
215	0x3cc5084f	0.024051813
216	0xbdbc735d	-0.09201691
217	0x3da61a96	0.081105396
218	0x3dd1b405	0.10239414
219	0xbe06d131	-0.13165738
220	0xbe36bc83	-0.17845349
221	0xbcdbc371	-0.026826592
222	0x3d21f630	0.039541423
223	0x3e99d4c5	0.30045143
224	0xbeb52caf	-0.35385653
225	0x3b705660	0.0036672577
226	0x3e4814e0	0.19539213
227	0xbeb53d82	-0.3539849
228	0xbedd9da0	-0.4328432
229	0xbdb6aa8e	-0.089192495
230	0x3d1c72ff	0.038195606
231	0xbe0a0aff	-0.13480757
232	0xbecb1aea	-0.3966897
233	0x3e34d3f6	0.17658982
234	0xbda12a12	-0.078693524
235	0xbeba1456	-0.3634364
236	0x3dcd880b	0.10035714
237	0x3ead485c	0.33844268
238	0xbe9287ea	-0.2861932
239	0xbe871fce	-0.26391453
240	0x3eeb1bd8	0.4591968
241	0x3e789d3e	0.24278733
242	0xbe98abdb	-0.29818615
243	0xbd9c1a45	-0.07622198
244	0xbe45da2e	-0.1932151
245	0x3e63eff3	0.22259502
246	0x3dc7ebfe	0.09761809
247	0x3e68dc60	0.22740316
248	0x3e83a269	0.25709847
249	0x3ec12cda	0.37729532
250	0x3f2035a4	0.6258185
251	0x3e49a2cd	0.1969101
252	0x3e5d51aa	0.21613184
253	0xbe8c8241	-0.27443126
254	0xbe66f4a1	-0.22554256
255	0x3e741184	0.23834807

interactions.0.message.rbf_to_scalar.0.bias f4 [32]
0	0xbb198746	-0.0023426577
1	0xba56fbb2	-0.00082009577
2	0xb80d597e	-3.3700366e-05
3	0x3baaa3cb	0.005207514
4	0x3c2674e1	0.010159702
5	0x3c490d91	0.012271301
6	0x3b7ab244	0.0038253227
7	0xbc3966ac	-0.011315983
8	0x3c624660	0.013810724
9	0x3c53fcdc	0.012938704
10	0xbc57e906	-0.013178116
11	0x3b10cda4	0.0022095228
12	0x3be16d7d	0.006879507
13	0x3c090ac3	0.008364382
14	0x3b552742	0.003252462
15	0x3c1c0a18	0.009523891
16	0xbba25829	-0.004954357
17	0xbb89736c	-0.0041946676
18	0x3c1b9755	0.00949653
19	0xbb30d2cd	-0.0026981116
20	0xbadc8711	-0.0016824921
21	0x3b061ab7	0.00204627
22	0x3c22486d	0.009904963
23	0x3c9b2a3b	0.018941035
24	0xbb9f6c93	-0.004865238
25	0x3aca9c88	0.0015458027
26	0xbbbb8a51	-0.0057232757
27	0x3b9d5c07	0.0048022303
28	0xbc423c1f	-0.011855154
29	0xbc84cda6	-0.016211342
30	0x3b362976	0.0027795709
31	0x3c9b86cb	0.018985173

interactions.0.message.rbf_to_scalar.2.weight f4 [96, 32]
0	0x3d7c6efa	0.061629273
1	0xbd7d8c39	-0.061901305
2	0xbe1464f0	-0.1449163
3	0xbdd0a060	-0.10186839
4	0xbe38c0d5	-0.1804231
5	0x3cb402ef	0.021974055
6	0x3dddc53c	0.10828635
7	0x3dd0d597	0.10196989
8	0xbdd962cc	-0.10614547
9	0x3db6a0e8	0.08917409
10	0xbcfae248	-0.030625477
11	0xbe4962fb	-0.19666664
12	0xbbe1687b	-0.00687891
13	0xbd2b8e60	-0.041883826
14	0x3def613d	0.116884686
15	0xbe527327	-0.2055174
16	0x3d847f60	0.06469607
17	0x3d62430d	0.055239726
18	0xbdb100ef	-0.08642756
19	0x3e130bb5	0.14359935
20	0x3e1cfb40	0.1533022
21	0x3e1c3211	0.15253474
22	0x3e471020	0.19439745
23	0xbe3f2b4a	-0.18668857
24	0x3cc6c3ee	0.024263348
25	0x3d7b9849	0.061424527
26	0x3dc3c3e7	0.0955885
27	0xbe2ea29a	-0.17054215
28	0x3e34bde1	0.17650558
29	0x3ca2c8cf	0.019871144
30	0x3def7c51	0.11693633
31	0xbca9f2a9	-0.020745592
32	0xbd9c8e31	-0.07644308
33	0xbc0ec5b1	-0.0087141255
34	0xbc3a5f50	-0.011375263
35	0x3e72eda6	0.23723468
36	0xbe3676fa	-0.17818823
37	0xbe02e0ae	-0.12781021
38	0x3e5b2b64	0.21403271
39	0x3d5ad2c7	0.05342367
40	0xbd4a278b	-0.049354117
41	0xbdc790d1	-0.097444184
42	0xbe3bc5a8	-0.18337119
43	0x3e2703e8	0.16310084
44	0x3d990f0e	0.074735746
45	0x3a928c56	0.0011180739
46	0x3e39a710	0.18130136
47	0xbe755b07	-0.23960505
48	0xbe0ddfc8	-0.13854897
49	0x3d5c952e	0.053853206
50	0xbe56d9f8	-0.20981586
51	0x3d1b347b	0.037891846
52	0xbcf545c1	-0.029940488
53	0xbeaa583e	-0.33270448
54	0x3bfbd8d6	0.007685761
55	0xbe38126c	-0.17975777
56	0x3d8d0f9d	0.068877436
57	0x3d3e5efe	0.04647731
58	0x3d9b53a9	0.07584316
59	0x3d35c722	0.04437936
60	0x3e4c6228	0.19959319
61	0xbde5926a	-0.11209567
62	0xbe48dd23	-0.19615607
63	0x3e8f3c85	0.2797586
64	0x3e3bd273	0.18341999
65	0xbc16ba24	-0.009199653
66	0xbdf12f63	-0.117766164
67	0x3e25b557	0.16182457
68	0xbdb3d4e1	-0.08780838
69	0xbe492547	-0.19643126
70	0xbe4dfd8b	-0.2011625
71	0x3d81b00a	0.06332405
72	0xbdf40ee0	-0.119169
73	0x3e1d239e	0.15345618
74	0xbdc698e8	-0.09697133
75	0x3d1de111	0.03854472
76	0xbc77d60c	-0.015126716
77	0x3e27ce49	0.16387285
78	0x3dce743b	0.10080763
79	0xbe7247ed	-0.2366025
80	0xbdc034d5	-0.09385077
81	0xbe1ac121	-0.15112735
82	0xbd88ca0c	-0.066791624
83	0xbe5617fd	-0.20907588
84	0x3d3a66d9	0.04550824
85	0x3e3ded1c	0.18547481
86	0xbdc96392	-0.09833445
87	0xbdc5f54f	-0.096659295
88	0x3e47bc48	0.19505417
89	0x3e07035e	0.13184878
90	0x3e3115dd	0.17293496
91	0xbdc80f8b	-0.097685896
92	0xbd5049b2	-0.05085153
93	0xbbb6c490	-0.0055776313
94	0x3d236b97	0.039897528
95	0xbe19e6d0	-0.15029454
96	0xbc252e04	-0.010081772
97	0x3e4fc730	0.20290828
98	0xbe4bad66	-0.19890365
99	0xbe2ec11a	-0.1706585
100	0x3df48bb3	0.11940708
101	0xbd85b64c	-0.06528911
102	0xbd254d99	-0.040357206
103	0xbd03d4e0	-0.032185435
104	0xbe5bfa6d	-0.21482249
105	0x3e2fd0b5	0.17169459
106	0x3e0c18af	0.13681291
107	0x3e05c51c	0.13063473
108	0xbdd3fb75	-0.10350696
109	0xbe0f1150	-0.13971448
110	0x3c91e1a8	0.017807797
111	0x3dd7b890	0.105332494
112	0xbe353bdc	-0.17698616
113	0xbe462925	-0.19351633
114	0xbcbb5ba7	-0.022870852
115	0xbdd76345	-0.10516981
116	0xbe447a90	-0.19187379
117	0xbd0e21f8	-0.034700364
118	0x3dc3c421	0.09558893
119	0x3c6967b8	0.01424592
120	0xbdf60366	-0.12012367
121	0x3e2a0556	0.16603598
122	0xb9ca2e67	-0.00038563015
123	0x3da3c365	0.07996253
124	0x3d869879	0.065720506
125	0xbdf5133b	-0.119665585
126	0xbe4d9bcc	-0.20078963
127	0xbdfd097c	-0.123553246
128	0xbd65c713	-0.056098055
129	0x3d727a54	0.059198692
130	0xbe240ad6	-0.16019759
131	0xbe6d8ee2	-0.23199037
132	0xbc3223b5	-0.010872771
133	0xbc34d37e	-0.011036752
134	0xbd0e113a	-0.034684397
135	0xbcbb2ba4	-0.022847958
136	0x3d2800ff	0.041016575
137	0xbe42e4dd	-0.19032617
138	0x3e118f0b	0.14214723
139	0x3e3fdfeb	0.18737762
140	0x3cc0e145	0.023544917
141	0x3d9150eb	0.07095512
142	0xbd292820	-0.04129803
143	0x3c4663cf	0.012108757
144	0x3e5b2b8a	0.21403328
145	0x3da857c2	0.082198635
146	0x3a7c891a	0.0009633467
147	0x3dfe5cc8	0.1242004
148	0xbdb6bdaa	-0.08922894
149	0xbcd13119	-0.025536107
150	0x3dacc0b6	0.08435194
151	0x3b892ef0	0.0041865036
152	0xbe0ee732	-0.13955382
153	0xbe5048f2	-0.20340326
154	0x3df2ca8f	0.11855041
155	0xbe58249a	-0.21107712
156	0x3e2b4c9f	0.16728447
157	0x3e48bf4d	0.19604225
158	0xbde6e5e5	-0.11274318
159	0xbdf21505	-0.118204154
160	0x3e58ab8f	0.21159194
161	0xbd8b8b04	-0.068136245
162	0x3dd1f50d	0.10251818
163	0x3e00060f	0.12502311
164	0x3d51f2e0	0.051257014
165	0xbd950c29	-0.0727771
166	0xbe121fae	-0.14269897
167	0x3d24d61e	0.04024326
168	0xbe41cbd6	-0.18925413
169	0xbe302ccd	-0.1720459
170	0xbd5313b3	-0.05153246
171	0x3d39b44c	0.04533796
172	0x3e02ca04	0.12772375
173	0xbb99b132	-0.004690313
174	0xbdc0d3c6	-0.094153926
175	0x3dad3af2	0.084585086
176	0x3d36e042	0.044647463
177	0xbe357c14	-0.17723113
178	0x3e12f456	0.1435102
179	0xbdb68cf3	-0.08913603
180	0xbe509424	-0.20369011
181	0xbdc43d37	-0.09581988
182	0xbb984466	-0.0046468256
183	0xbe3c9205	-0.18415077
184	0x3e32829d	0.17432638
185	0x3d474c48	0.04865673
186	0x3e4d6efb	0.20061867
187	0xbe4673a4	-0.19380051
188	0xbcf8c085	-0.030365238
189	0xbe03db2b	-0.12876575
190	0x3e412172	0.18860415
191	0x3cee66f1	0.02910182
192	0x3c6c7c5a	0.014433945
193	0x3cb567ba	0.022144187
194	0xbe321185	-0.17389496
195	0xbe3da056	-0.18518195
196	0xbe1c8361	-0.15284492
197	0xbe085e71	-0.13317277
198	0xbd61b480	-0.05510378
199	0xbe712bf4	-0.23551923
200	0x3da618e3	0.081102155
201	0x3e5ac171	0.21362855
202	0xbe738148	-0.23779786
203	0xbe12a59f	-0.14320992
204	0xbdcee5cd	-0.10102425
205	0x3c809955	0.015698114
206	0x3e1d270f	0.15346931
207	0xbd8fb4a9	-0.0701688
208	0x3dde7944	0.10862973
209	0x3e2b8175	0.16748603
210	0xbd8c9ba7	-0.06865626
211	0x3d072948	0.032998353
212	0xbd84158d	-0.06449423
213	0x3bc17022	0.00590326
214	0x3e18f9f6	0.14939103
215	0x3d8e9d86	0.06963639
216	0xbd00479e	-0.0313183
217	0x3da88ef4	0.08230391
218	0xbe2f6fdc	-0.17132515
219	0x3e31004e	0.17285272
220	0x3cb162e8	0.021653607
221	0xbda07e1b	-0.07836553
222	0x3dd29691	0.102826245
223	0xbbae94e6	-0.0053278087
224	0x3e13f068	0.14447176
225	0x3c144ce2	0.009051533
226	0xbe290665	-0.16506346
227	0x3d836241	0.06415225
228	0xbd0b8dc0	-0.03407073
229	0x3d1d5d34	0.038418964
230	0x3e5035ca	0.20333019
231	0xbd4ce6dd	-0.050024856
232	0x3e200bb4	0.15629464
233	0x3c0f55f0	0.008748516
234	0x3df8e4ac	0.12152991
235	0xbe235d4c	-0.15953559
236	0xbe4fe98a	-0.20303932
237	0x3dc62021	0.09674097
238	0xbdcddec4	-0.10052255
239	0xbdb2657b	-0.08710762
240	0xbe03fd31	-0.12889554
241	0x3d89e0ec	0.067323536
242	0xbe5ab7fc	-0.21359247
243	0xbe2d04e6	-0.168964
244	0x3e0c5db6	0.13707623
245	0x3e45ed7c	0.19328874
246	0xbe04f8d4	-0.12985545
247	0x3d92a058	0.071594894
248	0x3dc18839	0.094498105
249	0x3e680f00	0.22661972
250	0x3e62dff7	0.22155748
251	0x3e2cee00	0.16887665
252	0x3cb51df2	0.022109006
253	0xbddc9966	-0.10771446
254	0x3c9bac36	0.019003015
255	0x3e3e2089	0.18567099

interactions.0.message.rbf_to_scalar.2.bias f4 [96]
0	0xbbd5200d	-0.006504065
1	0xb7e8bd15	-2.7744603e-05
2	0x3ce4a1af	0.027909128
3	0x3a834f04	0.0010018055
4	0xbbe305ec	-0.006928196
5	0xbbe4c33b	-0.006981281
6	0x3c3f6264	0.011681173
7	0x3b4aad04	0.003092588
8	0xbd440f2b	-0.047866028
9	0x3c8d2e57	0.01723401
10	0xbd014f0a	-0.03156952
11	0xbb29966e	-0.0025877017
12	0xbc1fc663	-0.009751889
13	0x3c8a9d2c	0.016920649
14	0x3d393049	0.045212064
15	0xbc097c35	-0.00839143
16	0xbc3a1851	-0.011358337
17	0x3bd95177	0.006632026
18	0x3bb80629	0.0056159687
19	0x3c46a376	0.012123933
20	0xbb46ebcf	-0.0030352955
21	0xbbde8dc8	-0.006791804
22	0x3c3df6ad	0.011594457
23	0xbc0411ce	-0.008060886
24	0xbbb05004	-0.0053806324
25	0x3c3ec5f4	0.011643875
26	0xbbf2ab8e	-0.007405705
27	0x3b2c328d	0.0026275248
28	0x3c9239a5	0.017849753
29	0xba9dd531	-0.0012041685
30	0xbc3c7588	-0.011502631
31	0xbbe6c15b	-0.0070420927
32	0x00000000	0.0
33	0x00000000	0.0
34	0x00000000	0.0
35	0x00000000	0.0
36	0x00000000	0.0
37	0x00000000	0.0
38	0x00000000	0.0
39	0x00000000	0.0
40	0x00000000	0.0
41	0x00000000	0.0
42	0x00000000	0.0
43	0x00000000	0.0
44	0x00000000	0.0
45	0x00000000	0.0
46	0x00000000	0.0
47	0x00000000	0.0
48	0x00000000	0.0
49	0x00000000	0.0
50	0x00000000	0.0
51	0x00000000	0.0
52	0x00000000	0.0
53	0x00000000	0.0
54	0x00000000	0.0
55	0x00000000	0.0
56	0x00000000	0.0
57	0x00000000	0.0
58	0x00000000	0.0
59	0x00000000	0.0
60	0x00000000	0.0
61	0x00000000	0.0
62	0x00000000	0.0
63	0x00000000	0.0
64	0x3c829752	0.015941296
65	0xbb8a44fc	-0.0042196494
66	0xbcb80ea0	-0.022467911
67	0x3c03818f	0.008026495
68	0x3cb4b570	0.022059172
69	0x3c0ea498	0.008706234
70	0xbbc0cd61	-0.005883858
71	0x3c8e5c7c	0.017378084
72	0x3b1e2585	0.002413125
73	0x3bd8650b	0.006603842
74	0xbaaf9301	-0.0013395251
75	0x3c4e5c90	0.012595311
76	0x3ce26a40	0.027638555
77	0xbc249cbd	-0.010047135
78	0xbbcc2230	-0.0062296614
79	0x3cbe751b	0.0232492
80	0xbcc3e656	-0.023913544
81	0xbb03a82e	-0.0020089257
82	0x3bd0d0a2	0.006372527
83	0xbc9b27e1	-0.018939914
84	0xbc5992e9	-0.013279655
85	0xbc61495f	-0.013750403
86	0xbb52a0c6	-0.0032139285
87	0x3b3b6ff3	0.0028600662
88	0x3c1959c5	0.009359782
89	0x3d3cf978	0.04613635
90	0xbbabe7ec	-0.005246153
91	0xbabccc13	-0.001440408
92	0xbb8dd678	-0.004328545
93	0xbc117654	-0.008878309
94	0xbc9b5219	-0.018960046
95	0xbb94df5e	-0.004543229

interactions.0.update.mixing_matrix f4 [3, 3]
0	0xbf443cd7	-0.76655334
1	0xbe3d5ec6	-0.18493184
2	0xbd376cdb	-0.044781547
3	0x3f362567	0.7115082
4	0x3e68ef7d	0.22747608
5	0xbf002c6c	-0.5006778
6	0x3f273be0	0.65325737
7	0x3f05d2c6	0.5227474
8	0x3f15b0d8	0.5847297

interactions.0.update.update_mlp.0.weight f4 [32, 64]
0	0xbd85a0c9	-0.06524808
1	0x3e474571	0.19460084
2	0x3d4bba37	0.049738135
3	0xbe78ee09	-0.24309553
4	0xbcd5208c	-0.026016496
5	0x3b92c3c0	0.0044789016
6	0x3d13b417	0.03606042
7	0x3d832ec5	0.06405405
8	0x3d1a3a7d	0.037653435
9	0x3e0cd0c9	0.1375152
10	0xbd33e809	-0.043922458
11	0xbda23f2b	-0.079222046
12	0xbe4326cd	-0.1905777
13	0xbe5ec9c6	-0.21756658
14	0x3e6dd81c	0.2322697
15	0xbe31a838	-0.17349327
16	0xbc938584	-0.018008001
17	0x3dea4ca1	0.11440397
18	0x3e72eea8	0.23723853
19	0x3d96e947	0.07368713
20	0x3e6c401b	0.2307133
21	0xbe009936	-0.12558445
22	0xbdc0c733	-0.09412994
23	0xbda43264	-0.08017424
24	0x3ded43aa	0.115851715
25	0x3d9a5aa3	0.07536819
26	0xbded7f5c	-0.115965575
27	0xbcdba0f7	-0.026810152
28	0x3d9dd0cb	0.0770584
29	0xbdd10fb1	-0.10208071
30	0xbd8c9807	-0.068649344
31	0x3e07a251	0.13245513
32	0x3df35768	0.11881906
33	0xbcf9310f	-0.0304189
34	0xbd34ed2c	-0.044171497
35	0x3e10733b	0.14106457
36	0x3e726961	0.23673011
37	0x3d6e77d7	0.058219757
38	0x3e47efd7	0.19525085
39	0xbcb7f782	-0.022456888
40	0xbe52927c	-0.20563692
41	0x3d27989f	0.040917035
42	0x3e4e90d3	0.20172434
43	0xbe74cf94	-0.2390731
44	0xbdf9c0d8	-0.12194985
45	0xbcc6585a	-0.024212051
46	0x3e83a891	0.25714543
47	0x3d382721	0.04495919
48	0xbe55a0a3	-0.2086206
49	0xbdf0dfef	-0.11761462
50	0xbe16442d	-0.14674444
51	0x3e070688	0.13186085
52	0xbca348b4	-0.019932128
53	0x3e680d04	0.22661215
54	0xbeba16ba	-0.36345464
55	0xbe882060	-0.265872
56	0x3e09f7d5	0.13473447
57	0xbcfcdff0	-0.0308685
58	0x3e58dd9d	0.21178289
59	0x3e37dbee	0.1795499
60	0x3d812c88	0.06307322
61	0x3db9e770	0.09077346
62	0x3e0081c9	0.12549509
63	0xbe756978	-0.23966014
64	0xbc5d567b	-0.013509388
65	0xbdf12162	-0.117739454
66	0x3d907c9a	0.07055016
67	0x3cc34910	0.02383855
68	0x3e493cc4	0.19652086
69	0xbe53bd33	-0.20677643
70	0x3d8d5fd7	0.069030456
71	0xbdf8dae5	-0.12151126
72	0xbd0c2963	-0.034219157
73	0xbd566a85	-0.05234768
74	0x3e6e6aa1	0.23282863
75	0x3c83a915	0.016071836
76	0xbdd4e1b0	-0.10394609
77	0xbe7d7fa5	-0.24755724
78	0x3e1c12af	0.15241502
79	0x3e8d607c	0.27612674
80	0xbe2081f6	-0.15674576
81	0xbe4eee15	-0.20208009
82	0xbe3ecb9b	-0.18632357
83	0xbdbe2ca3	-0.092858575
84	0x3d03a42c	0.03213899
85	0xbe752101	-0.23938371
86	0x3dfa791f	0.12230133
87	0xbe485ac2	-0.19565871
88	0xbdc118ec	-0.094285816
89	0xbcb35da3	-0.021895235
90	0xbdb996cd	-0.09061966
91	0xbe4d6cae	-0.2006099
92	0xbdfadcfb	-0.1224918
93	0xbd97b7d0	-0.07408106
94	0x3e47eb8b	0.19523446
95	0xbe4e58cf	-0.20151065
96	0xbd46a239	-0.04849455
97	0xbe053592	-0.13008717
98	0x3d98d877	0.074631624
99	0xbe4a0712	-0.1972926
100	0xbd840e39	-0.06448025
101	0x3e231ede	0.15929744
102	0xbdfe4ece	-0.124173746
103	0x3e3ef392	0.18647602
104	0x3e70a68f	0.23501037
105	0xbde86fd3	-0.11349454
106	0xbe04364d	-0.12911339
107	0x3e44bbd6	0.19212279
108	0xbe06664b	-0.13124959
109	0xbe13abfd	-0.14421077
110	0xbe2ef3ee	-0.1708524
111	0x3b7f5868	0.0038962606
112	0x3d4efd72	0.050534673
113	0x3d3d4c1e	0.04621517
114	0x3d5c5a4a	0.053797044
115	0x3ca81677	0.020518525
116	0xbe0d3570	-0.13789916
117	0x3e1db11e	0.15399596
118	0x3e30e82c	0.17276067
119	0x3d9a2194	0.07525936
120	0x3e7872ab	0.24262492
121	0xbe7c5889	-0.24643148
122	0xbdcc5ef1	-0.09979046
123	0x3ea72ede	0.32652944
124	0xbd893fcc	-0.067016214
125	0x3e677751	0.2260411
126	0xbd83e9f4	-0.064411074
127	0xbe4fc347	-0.20289336
128	0x3df9e40b	0.12201699
129	0x3da08a14	0.07838836
130	0xbd2e8fde	-0.04261767
131	0xbdf3cf5a	-0.119047835
132	0xbe16061b	-0.14650767
133	0xbdbed69b	-0.093182765
134	0xbdf66884	-0.120316535
135	0x3e22fcd8	0.15916765
136	0xbe178c9d	-0.14799733
137	0xbdb79f9d	-0.08965991
138	0xbe57ebf5	-0.21086104
139	0xbe68bdcf	-0.22728656
140	0x3e25955c	0.16170257
141	0x3e0d27eb	0.13784759
142	0xbe97a0d5	-0.29614893
143	0xbd81e6b9	-0.06342835
144	0xbe48b3e3	-0.19599871
145	0x3e235f53	0.15954332
146	0xbcf43934	-0.029812433
147	0x3d825487	0.063637786
148	0xbe0c1627	-0.13680325
149	0xbe4ffba8	-0.20310843
150	0x3e43d905	0.19125755
151	0xbcaae33e	-0.02086031
152	0xbe607451	-0.21919371
153	0xbe4ac1c4	-0.19800478
154	0x3e2b37db	0.16720526
155	0x3e74b916	0.2389873
156	0xbdedcd85	-0.11611465
157	0x3d7cb40f	0.061695155
158	0xbda97276	-0.08273785
159	0xbd247631	-0.04015178
160	0x3e4d3e49	0.20043291
161	0x3e585327	0.2112547
162	0xbe175a8d	-0.14780636
163	0xbd6ea6d7	-0.05826458
164	0x3ba6c69f	0.0050895954
165	0x3ddfa89f	0.10920834
166	0xbe4d02a6	-0.20020542
167	0xbd85d2ac	-0.06534323
168	0x3d3028a8	0.043007523
169	0x3e43e3e4	0.19129902
170	0xbdeaf061	-0.1147163
171	0xbe42c54b	-0.19020574
172	0xbe6cb39f	-0.23115395
173	0xbdf735b8	-0.12070793
174	0x3b792b16	0.0038020066
175	0xbc173d90	-0.009230986
176	0x3e3c1b3d	0.18369766
177	0x3e176614	0.14785033
178	0x3e543914	0.20724899
179	0xbd8e94db	-0.06961986
180	0xbd5d6d01	-0.054059032
181	0xbe21c20b	-0.15796678
182	0xbd937112	-0.07199301
183	0xbde497ce	-0.11161767
184	0x3de6d934	0.11271897
185	0xbe8a4f82	-0.27013785
186	0x3e0b4229	0.13599457
187	0x3cc0c462	0.023531143
188	0xbe2fd6ef	-0.17171834
189	0x3db02278	0.086003244
190	0xbe1b246c	-0.15150613
191	0xbe10db11	-0.14146067
192	0xbdec09fb	-0.11525341
193	0x3e4c34a1	0.19941951
194	0x3e170ef6	0.14751801
195	0x3dd791b7	0.1052584
196	0xbe864b34	-0.2622925
197	0xbe27a871	-0.16372849
198	0xbd31561d	-0.043295015
199	0x3e02dba9	0.12779106
200	0x3c99a0b9	0.018753396
201	0x3e1440c6	0.14477834
202	0x3de5ccf9	0.11220736
203	0x3e793ada	0.24338856
204	0xbe859060	-0.26086712
205	0xbdb6ab61	-0.08919407
206	0x3d8c0f4a	0.06838854
207	0x3d9d40a2	0.07678343
208	0x3df87c21	0.12133051
209	0xbe8ac64e	-0.2710442
210	0xbdbabda1	-0.091182
211	0x3d18e1ca	0.037324704
212	0x3dedf278	0.11618513
213	0x3db62048	0.08892876
214	0xbdb92319	-0.090398975
215	0xbe448364	-0.19190747
216	0xbdb006be	-0.08595036
217	0x3e2b62d1	0.16736914
218	0x3da1659a	0.07880707
219	0x3e461414	0.19343597
220	0x3e06460a	0.13112655
221	0x3de34b75	0.11098377
222	0xbb8463d2	-0.00404022
223	0xbe18050e	-0.14845678
224	0xbdb9167c	-0.09037492
225	0xbe266b82	-0.16251948
226	0xbd1e5106	-0.03865149
227	0x3e4c9825	0.19979914
228	0xbdc91636	-0.098186895
229	0xbe0aebaf	-0.13566469
230	0x3e1af951	0.15134169
231	0x3dbf2cfa	0.093347505
232	0x3d305326	0.043048047
233	0xbaaae4b0	-0.0013038125
234	0x3dfab3ff	0.12241363
235	0x3e111c9c	0.1417107
236	0xbda61a0a	-0.08110435
237	0xbc9db47a	-0.019251097
238	0x3daffc5d	0.08593056
239	0x3e4b1cac	0.19835156
240	0xbb537663	-0.003226661
241	0xbe479c17	-0.19493137
242	0xbe8ab9c5	-0.27094856
243	0x3dc24330	0.09485471
244	0x3d346c61	0.04404867
245	0xbd8abe8f	-0.067746274
246	0xbdeb0daf	-0.11477219
247	0x3cb7440a	0.02237131
248	0x3e2e2262	0.17005304
249	0xbd39c3a1	-0.045352582
250	0x3c7e9a94	0.015539784
251	0xbe941f0b	-0.28929934
252	0x3e142530	0.14467311
253	0x3d14dd1d	0.036343683
254	0xbdbac7d5	-0.09120146
255	0x3e4ee6ab	0.2020518

interactions.0.update.update_mlp.0.bias f4 [32]
0	0x3ce8e238	0.028428182
1	0xbc750738	-0.014955334
2	0xbcc54763	-0.024081891
3	0xbcfd9cbd	-0.030958528
4	0x3c4d31e0	0.012524098
5	0x3cb48636	0.022036653
6	0xbc5f6610	-0.013635173
7	0x3c8a14d1	0.01685563
8	0xbc9c7b17	-0.019101663
9	0x3c0f7561	0.008756013
10	0x3c855837	0.016277416
11	0xbbae503e	-0.005319624
12	0x3c3415e0	0.0109915435
13	0x3d23b1a9	0.03996435
14	0x3cceafb3	0.025230264
15	0xbcf0ac4d	-0.029379034
16	0xbca79db6	-0.020460945
17	0xbbbe64d6	-0.0058103604
18	0xbc5da307	-0.013527638
19	0x3c96f30e	0.018426444
20	0x3d30fdb3	0.043210696
21	0x3c7381e6	0.014862513
22	0x3ccafe3e	0.024779435
23	0x3cb583bf	0.022157548
24	0xbc99bc98	-0.018766686
25	0xbc377cf6	-0.011199227
26	0xbc42a924	-0.011881147
27	0x3caf20e4	0.021377988
28	0x3cfd7073	0.030937409
29	0x3d027c6d	0.031856943
30	0xbd18aba7	-0.037273075
31	0x3c673df2	0.01411389

interactions.0.update.update_mlp.2.weight f4 [96, 32]
0	0xbe6e7701	-0.23287584
1	0xbd6ed9ec	-0.058313295
2	0x3e21481f	0.15750168
3	0x3be9a29c	0.0071299803
4	0x3bd7cfba	0.006586042
5	0xbe049ce0	-0.12950468
6	0xbd272493	-0.040806364
7	0x3e40495f	0.18777989
8	0x3da85cc0	0.08220816
9	0x3d6f655b	0.05844627
10	0x3e85ad82	0.26108938
11	0xbc81ae6d	-0.015830243
12	0xbe68a75f	-0.22720097
13	0x3e0078ed	0.1254613
14	0x3dbf83b7	0.093512945
15	0x3dfde985	0.12398056
16	0x3e10114b	0.14069097
17	0x3d5068c0	0.050881147
18	0x3e4cac74	0.1998766
19	0xbe7744a3	-0.24147277
20	0xbd08b595	-0.033376295
21	0xbe0257f0	-0.12728858
22	0xbe4adbb4	-0.19810373
23	0xbe0b0f98	-0.13580167
24	0x3e397ed4	0.18114787
25	0x3db00fd0	0.08596766
26	0x3e8b742c	0.2723707
27	0xbac822a8	-0.0015269117
28	0x3e15524e	0.14582178
29	0xbd066300	-0.032809258
30	0xbe243104	-0.16034323
31	0xbbeed34b	-0.0072883717
32	0x3e66db33	0.22544555
33	0x3e299259	0.16559733
34	0x3da22d0f	0.079187505
35	0xbc37f9b3	-0.0112289665
36	0xbe3d7824	-0.18502861
37	0x3e0c24f2	0.13685969
38	0xbd1f40d7	-0.038880195
39	0x3d1dc50d	0.038518
40	0xbe1ebac0	-0.15500927
41	0xbdedb624	-0.11607006
42	0xbd8cc595	-0.06873623
43	0xbde2f5d3	-0.110820435
44	0x3e205034	0.15655595
45	0xbc13aeed	-0.0090138735
46	0x3dfb34cb	0.12265929
47	0xbe50325d	-0.20331712
48	0xbb2f4604	-0.0026744613
49	0xbdd9d87e	-0.10636996
50	0xbddead3c	-0.108728856
51	0x3dfa3da9	0.12218792
52	0x3d518657	0.051153507
53	0x3e6658d8	0.22494829
54	0xbe2d81e9	-0.16944088
55	0xbd232493	-0.0398298
56	0x3d4dd403	0.05025102
57	0x3e05d24f	0.13068508
58	0xbe2654ca	-0.16243282
59	0xbddbcb59	-0.10732145
60	0x3e582cbd	0.21110816
61	0x3d7ec51b	0.062199693
62	0xbe3be129	-0.1834761
63	0x3dbd99d1	0.09257854
64	0xbd8eb2da	-0.06967707
65	0x3dee3d06	0.11632733
66	0x3cd96239	0.026536094
67	0x3da802e0	0.08203673
68	0xbd8835b7	-0.0665087
69	0x3e417a89	0.188944
70	0xbd4f513b	-0.050614577
71	0x3e415900	0.18881607
72	0x3da05354	0.078283936
73	0xbdf3485b	-0.11879035
74	0x3dc85278	0.09781355
75	0xbc638db7	-0.013888768
76	0xbd8d12a7	-0.06888323
77	0xbe41a5af	-0.1891086
78	0x3c457b42	0.012053313
79	0x3e0dd197	0.13849483
80	0xbd54472b	-0.051825684
81	0x3d842456	0.06452243
82	0x3e10f14a	0.14154544
83	0xbe1200a1	-0.14258052
84	0x3e810995	0.25202623
85	0xbe0ca08a	-0.13733116
86	0xbdea624f	-0.11444532
87	0xbd562e69	-0.052290354
88	0xbda55af6	-0.0807399
89	0x3e1eb843	0.15499978
90	0xbce52026	-0.027969431
91	0x3d0aaa58	0.03385386
92	0x3e0a8aed	0.13529558
93	0xbe398471	-0.18116929
94	0xbd387f9b	-0.04504357
95	0xbdba58cf	-0.0909897
96	0xbd6ae9f9	-0.05735204
97	0x3e06d758	0.13168085
98	0xbccd5ec8	-0.02506961
99	0x3d274256	0.040834747
100	0xbcd9bdb5	-0.026579717
101	0xbc018b8f	-0.0079068085
102	0x3cc0e670	0.023547381
103	0x3e6efc80	0.23338509
104	0x3e4d6eb5	0.20061763
105	0x3c3c0a7e	0.011477111
106	0xbdf84d72	-0.121241465
107	0x3e4f14f2	0.20222834
108	0xbdce19af	-0.100634925
109	0x3e370a8b	0.17875116
110	0x3e2cfb83	0.16892819
111	0x3dbb0da2	0.0913346
112	0x3e5396aa	0.20662943
113	0x3dea2839	0.11433453
114	0x3cb801d3	0.022461807
115	0x3c8b4e2e	0.017005052
116	0x3d2e2a4b	0.042520802
117	0xbe08ca34	-0.13358384
118	0xbc466aa0	-0.012110382
119	0xbcdc6551	-0.02690378
120	0x3d004bac	0.031322166
121	0xbe2556ed	-0.16146441
122	0x3e5a5da3	0.21324782
123	0xbbecb3b8	-0.0072235726
124	0xbe34459c	-0.17604679
125	0x3dc733b0	0.097266555
126	0xbdf9153c	-0.12162253
127	0x3e0b31f8	0.1359328
128	0xbdd4f253	-0.10397782
129	0x3bbbf1f8	0.005735632
130	0xbe18804d	-0.14892693
131	0xbe05396a	-0.13010183
132	0xbe00f8c4	-0.12594897
133	0x3e579a34	0.21054918
134	0xba034b2e	-0.0005008456
135	0x3daa9448	0.08329064
136	0x3d2662e4	0.040621653
137	0xbd24b443	-0.040210973
138	0xbe000d29	-0.1250502
139	0xbe0bf658	-0.13668191
140	0xbe01f1ad	-0.12689848
141	0x3db57bf2	0.08861531
142	0x3dd40d23	0.10354068
143	0xbd9de62d	-0.07709918
144	0xbe0f093c	-0.13968366
145	0xbcb1dd68	-0.02171202
146	0x3e114338	0.14185798
147	0xbe473b62	-0.19456246
148	0x3d814fb0	0.06314027
149	0x3e15efb5	0.14642222
150	0xbe9061ae	-0.28199524
151	0xbdef274b	-0.116774164
152	0xbd9a3695	-0.07529942
153	0x3e56f0e2	0.20990327
154	0x3e4b2829	0.19839539
155	0x3e2b168c	0.1670782
156	0xbe8c0adc	-0.27352035
157	0xbe1abe73	-0.15111713
158	0xbb7e4760	-0.0038799867
159	0x3dd013e0	0.10160041
160	0xbda3dc24	-0.08000973
161	0x3d078e01	0.03309441
162	0x3e24d422	0.16096547
163	0x3e283f87	0.16430484
164	0x3e1cb7dd	0.15304513
165	0x3b8dcd4e	0.0043274527
166	0x3d60c9b6	0.054879867
167	0x3d853894	0.06504932
168	0xbd4510bc	-0.048111662
169	0xbc894c18	-0.016759917
170	0xbe323574	-0.17403203
171	0xbe41d8ba	-0.18930331
172	0xbe23e13d	-0.1600389
173	0x3dc27370	0.09494674
174	0xbdd291ea	-0.10281737
175	0x3e01c13e	0.12671372
176	0x3da225eb	0.079173885
177	0xbe090254	-0.13379794
178	0x3e54fbb6	0.20799145
179	0xbe14e27d	-0.14539523
180	0x3e06c659	0.13161601
181	0x3db709c8	0.089374125
182	0x3d999e12	0.07500853
183	0x3cd0d575	0.02549241
184	0xbe570360	-0.20997381
185	0x3d8ee129	0.0697654
186	0x3d93b7d0	0.07212794
187	0xbe4486ce	-0.19192049
188	0xbe222f17	-0.15838276
189	0xbe4f8bd0	-0.20268178
190	0x3e3db607	0.18526469
191	0xbe8351a3	-0.2564822
192	0xbdbe6dd9	-0.092982955
193	0x3bc32409	0.0059552235
194	0x3e359914	0.17734176
195	0x3d9fc9de	0.07802175
196	0x3e4017c7	0.1875907
197	0x3d518196	0.051148973
198	0x3a37ded4	0.00070141
199	0x3d990118	0.07470912
200	0xbdaace71	-0.08340157
201	0xbdf80373	-0.12110033
202	0xbe20093e	-0.15628526
203	0xbe412f5c	-0.18865722
204	0xbc277f58	-0.010223232
205	0xbe07be4f	-0.1325619
206	0xbdcc53cb	-0.0997692
207	0xbe404c44	-0.18779093
208	0xbd439600	-0.047750473
209	0x3e4692c0	0.19391918
210	0xbe589726	-0.21151409
211	0xbdb92592	-0.09040369
212	0x3e21dd2f	0.15807031
213	0x3e2416b3	0.16024284
214	0x3e2afb8f	0.16697524
215	0xbdc6bf27	-0.09704428
216	0xbcc39658	-0.0238754
217	0xbd837d77	-0.06420415
218	0xbe3371c0	-0.17523861
219	0xbd76ea1a	-0.06028185
220	0x3e55e4dd	0.20888086
221	0x3d940983	0.07228377
222	0x3d8e23cd	0.06940422
223	0xbe69609d	-0.22790761
224	0x3e3b39ad	0.1828372
225	0x3e3f3b9c	0.18675083
226	0x3e136cfb	0.14397041
227	0xbd46cd41	-0.04853559
228	0x3e043333	0.12910156
229	0x3e315250	0.17316556
230	0x3e3616bd	0.17782111
231	0xbe6d2d58	-0.23161829
232	0xbd6b4c28	-0.057445675
233	0x3e1361be	0.14392754
234	0x3c5e50e8	0.013569094
235	0x3e15b379	0.14619245
236	0x3e7a0d96	0.24419245
237	0xbdf17b4f	-0.117910974
238	0xbca89c88	-0.020582452
239	0x3e22eaa5	0.15909822
240	0x3e056d7f	0.1303005
241	0xbce33d94	-0.027739324
242	0xbde2f52a	-0.110819176
243	0xbc78f23f	-0.015194475
244	0xbe209091	-0.15680148
245	0xbe396d37	-0.18108068
246	0x3da49138	0.08035511
247	0xbe0c1b4d	-0.1368229
248	0x3cb31509	0.021860616
249	0x3df15703	0.11784174
250	0xbbaaf449	-0.0052171093
251	0x3e1c7e3a	0.15282527
252	0x3e294be9	0.16532864
253	0xbe3ecf36	-0.18633732
254	0x3d1ab0e5	0.037766356
255	0xbd7e0739	-0.062018607

interactions.0.update.update_mlp.2.bias f4 [96]
0	0xbc911ef2	-0.017714951
1	0x3cf74754	0.03018538
2	0x3c3e0dea	0.011599997
3	0xbd291397	-0.041278448
4	0xbced95fc	-0.029002182
5	0x3b80ba11	0.003928431
6	0x3b614f90	0.0034379698
7	0xbcbb0711	-0.022830518
8	0xbcdf3fb3	-0.027252054
9	0xbb8345d9	-0.004006129
10	0x3d126d09	0.035748515
11	0x3cad1eaa	0.021132786
12	0xbcd1a777	-0.025592549
13	0xbd4f13f3	-0.050556134
14	0x3b4b3946	0.003100948
15	0xbcb0885b	-0.021549394
16	0x3cc5de81	0.02415395
17	0x3b0c0be3	0.002136939
18	0x3cd809f9	0.026371943
19	0xbc064fb8	-0.008197717
20	0xbc644a4a	-0.0139337275
21	0x3cba060e	0.022707965
22	0x3c82c9c9	0.01596536
23	0x3cda5795	0.02665309
24	0xbbe2653e	-0.0069090417
25	0x3c09b047	0.008403844
26	0x3cc89ac5	0.024487862
27	0x3cf216ec	0.029551946
28	0xbc90cf73	-0.017677044
29	0xbc93d5ff	-0.018046377
30	0x3d0a9fa5	0.033843655
31	0xbb05f587	-0.0020440535
32	0xbd1e1b0b	-0.03860001
33	0x3d9b1844	0.07572988
34	0xbdb05ea7	-0.086118035
35	0xbc7d047a	-0.015442962
36	0xbc8e6434	-0.017381765
37	0x3cfe8144	0.031067498
38	0x3cc9db95	0.024640838
39	0x3ca88f64	0.020576186
40	0xbd0e80aa	-0.034790672
41	0xbbddedef	-0.0067727487
42	0x3cd4517e	0.025917765
43	0xbe0f807b	-0.14013855
44	0x3cc364ba	0.023851741
45	0x3c2b442d	0.010453266
46	0xbc1e5f5a	-0.009666288
47	0xbb76e4ac	-0.003767292
48	0xbd1d5791	-0.038413588
49	0x3d01ef9c	0.03172265
50	0x3d291172	0.041276403
51	0x3b17587b	0.002309351
52	0x3c8a11ea	0.016854245
53	0xbc66d27e	-0.014088271
54	0xbca84113	-0.020538842
55	0xbcb0f8e2	-0.021603052
56	0xbcf0ac2a	-0.02937897
57	0xbc61c062	-0.013778778
58	0x3d3abeb7	0.045592036
59	0x3a608406	0.0008564595
60	0x3be0c54d	0.0068594576
61	0x3c23fe11	0.010009305
62	0x3c020b63	0.007937285
63	0xbc7434e6	-0.01490519
64	0xbde48b87	-0.11159425
65	0x3d32cbf8	0.04365155
66	0x3d3a9a14	0.045557097
67	0x3d15ba7c	0.0365548
68	0x3d326f3f	0.043563124
69	0x3d3cf918	0.04613599
70	0x3c6be384	0.014397506
71	0x3c6ae5b8	0.014336996
72	0x3949945f	0.00019224126
73	0xbbd2978a	-0.0064267563
74	0xbceb5b5b	-0.028730085
75	0xbd35e5e0	-0.04440868
76	0xbd74fbcc	-0.059810445
77	0x3c7e278f	0.015512361
78	0xbdaecaa1	-0.08534742
79	0xbcb5f49f	-0.022211371
80	0xbc6b0a33	-0.014345693
81	0xbc7a3d74	-0.015273441
82	0x3bf6aa94	0.0075276587
83	0x3ca21a82	0.01978803
84	0x3d33cfd5	0.043899376
85	0x3c1ba20a	0.009499082
86	0x3d8bf289	0.06833369
87	0x3d3424bf	0.043980356
88	0x3ccf092a	0.025272924
89	0x3c772773	0.015085089
90	0xbc77995b	-0.015112246
91	0xbbe733b6	-0.007055725
92	0xbd1dc081	-0.038513664
93	0x3c81203c	0.01576244
94	0x3abacd9e	0.0014251953
95	0xbb97d889	-0.0046339673

interactions.1.message.rbf_to_scalar.0.weight f4 [32, 10]
0	0xbec000a8	-0.375005
1	0xbe77fd1f	-0.24217652
2	0x3e60c08b	0.2194845
3	0x3df76372	0.120795146
4	0xbe924a5e	-0.28572363
5	0x3eb5c29a	0.35500032
6	0xbdb815d0	-0.089885354
7	0xbeae4f7b	-0.34045014
8	0x3e9c21f9	0.3049467
9	0xbdd5dbf3	-0.104423426
10	0x3e817723	0.25286207
11	0x3dffe229	0.124943085
12	0xbbe3424d	-0.006935394
13	0xbe362f75	-0.17791541
14	0xbd2b5121	-0.041825417
15	0xbe5c3c24	-0.21507317
16	0x3e27dc45	0.1639262
17	0xbc265e4a	-0.010154316
18	0x3e8af133	0.27137145
19	0x3e695870	0.22787642
20	0xbd652a9a	-0.05594883
21	0x3cecc65e	0.028903183
22	0xbec50114	-0.38477385
23	0xbe1b7d3c	-0.15184492
24	0x3e409026	0.18804988
25	0x3c329008	0.010898598
26	0xbe6925b2	-0.22768286
27	0xbeaadecc	-0.33373106
28	0xbe2a80ed	-0.16650744
29	0x3e77b316	0.2418941
30	0xbeef5ed4	-0.46752036
31	0xbeecfc96	-0.46286458
32	0xbea9a644	-0.33134663
33	0x3eae8386	0.3408472
34	0x3e30d525	0.17268808
35	0x3e6b1c6e	0.22960064
36	0x3e5961c7	0.21228705
37	0x3d9d2db2	0.07674731
38	0xbe82a8c4	-0.25519383
39	0xbe1b3583	-0.15157132
40	0x3e42eb23	0.1903501
41	0xbe10edf1	-0.14153267
42	0x3ecd4c54	0.40097296
43	0xbebdef71	-0.37096742
44	0xbd8a975e	-0.06767152
45	0x3ea58c89	0.32333782
46	0x3e192d48	0.1495868
47	0xbe2e78c5	-0.17038257
48	0x3d8fd317	0.07022684
49	0x3d0e04e4	0.034672633
50	0xbea9c5cb	-0.33158717
51	0xbe67ce5a	-0.2263731
52	0x3ebd8c5a	0.37021142
53	0x3e22160a	0.1582872
54	0xbe2b53e0	-0.16731215
55	0x3e363077	0.17791925
56	0xbe3250ae	-0.1741359
57	0x3defa79d	0.117018916
58	0x3d002cdd	0.031292785
59	0x3c4dc5a3	0.012559327
60	0xbdff8dc0	-0.124782085
61	0x3eac831b	0.33693776
62	0xbe259a99	-0.16172256
63	0x3dd21721	0.10258318
64	0xbe0202ba	-0.12696353
65	0xbcf7ec12	-0.030263934
66	0xbe8ffbc5	-0.28121772
67	0x3ea40cdf	0.3204107
68	0x3e9d2965	0.30695644
69	0x3e32f31d	0.17475553
70	0x3ee71b36	0.45137948
71	0x3d17eb39	0.03708956
72	0x3e14432e	0.14478752
73	0x3e4ea3ff	0.20179747
74	0xbeaaf0f4	-0.33386958
75	0xbea25ab8	-0.31709838
76	0xbeb76bfd	-0.35824576
77	0x3d01362c	0.031545803
78	0x3e3c47fa	0.18386832
79	0x3ec9c969	0.39411476
80	0x3df574b9	0.11985154
81	0xbe51db84	-0.20493895
82	0x3ed4ebdf	0.41586205
83	0x3d091300	0.033465385
84	0x3eb806dd	0.35942736
85	0xbe1fce84	-0.15606123
86	0xbc643f37	-0.013931087
87	0x3e914afb	0.28377518
88	0xbdbc9dab	-0.0920976
89	0x3c995e19	0.018721627
90	0x3dae1c12	0.08501448
91	0xbe4806c2	-0.19533828
92	0x3ecc9a2d	0.39961377
93	0xbe5bd2e1	-0.21467163
94	0xbe28a6ee	-0.16469929
95	0x3d4840f2	0.04889006
96	0x3c8ad01d	0.01694494
97	0x3e5427b1	0.20718266
98	0xbe2763a2	-0.163466
99	0xbe194b09	-0.1497003
100	0xbe9eca8b	-0.31013903
101	0xbeb37d7f	-0.35056683
102	0xbd1a8fbe	-0.03773474
103	0x3e4efaf9	0.20212926
104	0x3e82c95b	0.25544247
105	0xbd7beaa9	-0.061503086
106	0xbcc87817	-0.024471326
107	0x3e11016a	0.14160696
108	0xbeb0d383	-0.3453637
109	0xbe9b1e48	-0.3029654
110	0x3e81a1e6	0.2531883
111	0x3ec25849	0.3795798
112	0x3db63215	0.08896271
113	0x3eaa4670	0.33256865
114	0xbe81fba0	-0.25387287
115	0x3d5a91de	0.053361766
116	0xbe6e042d	-0.2324378
117	0x3e636f2a	0.22210374
118	0x3df19c38	0.117973745
119	0x3dfda009	0.1238404
120	0x3e279b36	0.16367802
121	0x3df322db	0.118718825
122	0xbd23df6c	-0.040007994
123	0xbeb999d5	-0.36250177
124	0xbdf0d28b	-0.11758908
125	0x3deb835c	0.11499664
126	0xbe5ad12f	-0.2136886
127	0x3bc61bfd	0.006045817
128	0x3d8d4da6	0.06899576
129	0x3ebfabac	0.37435663
130	0xbe86e9f8	-0.2635038
131	0xbd8310cb	-0.063996874
132	0x3e2ee5f5	0.17079909
133	0xbe846d5d	-0.25864688
134	0x3ec15637	0.3776109
135	0xbeadb60e	-0.3392796
136	0x3e99f5f9	0.30070475
137	0xbe945308	-0.28969598
138	0x3d1fb7f9	0.03899381
139	0x3de91ff2	0.11383046
140	0x3f01d3c5	0.5071376
141	0x3f0e0b9e	0.55486476
142	0x3df14a8c	0.11781797
143	0x3d1fb54f	0.03899127
144	0xbebc4288	-0.3676951
145	0x3ec5f743	0.38665208
146	0xbea45448	-0.32095551
147	0x3e88ac0d	0.26693764
148	0x3e5f3ab9	0.21799745
149	0x3ea209cb	0.31648096
150	0x3e477cc6	0.19481191
151	0x3effb125	0.49939838
152	0x3e06398c	0.1310789
153	0x3e9925a9	0.29911545
154	0xbe0bb3ab	-0.13642757
155	0xbe763340	-0.24042988
156	0x3e0d9f18	0.1383022
157	0xbd0c8c5c	-0.034313545
158	0xbde5ffe6	-0.112304494
159	0x3e9aa641	0.30204967
160	0x3e8997de	0.26873678
161	0x3c21af6b	0.009868483
162	0xbea4421b	-0.32081684
163	0x3de264fb	0.11054417
164	0x3e7a4b81	0.24442865
165	0x3ebce941	0.3689671
166	0x3e018070	0.12646651
167	0x3e9e8659	0.30961874
168	0xbe828d8f	-0.25498626
169	0x3e95df44	0.292719
170	0xbe0f8dc2	-0.1401892
171	0xbeb8f6ff	-0.36125943
172	0x3dc96923	0.09834506
173	0x3ebdc28d	0.37062493
174	0x3ea5fa07	0.32417318
175	0xbe5fbe42	-0.21849921
176	0xbeb6753c	-0.35636318
177	0x3dc629d1	0.096759446
178	0xbea6601b	-0.32495198
179	0x3ebbdea8	0.3669331
180	0xbeb187e8	-0.34674
181	0xbe8e0289	-0.2773631
182	0xbe81ec16	-0.25375432
183	0xbe65176a	-0.22372213
184	0x3e20755c	0.15669769
185	0x3dda5433	0.10660591
186	0x3e5435d5	0.2072366
187	0xbeaf00ea	-0.34180385
188	0x3e8387fa	0.2568968
189	0x3e174aa9	0.14774574
190	0xbec4101b	-0.38293537
191	0xbe27f5e2	-0.1640239
192	0xbe70d0de	-0.23517177
193	0x3e7e085a	0.24807873
194	0x3e1d7082	0.1537495
195	0x3e4e9775	0.20174964
196	0x3e27c07a	0.16382018
197	0x3dbf7646	0.09348731
198	0x3e838df3	0.25694236
199	0xbe3635c6	-0.1779395
200	0xbf548249	-0.830113
201	0xbef2a60b	-0.47392306
202	0x3e59d181	0.21271326
203	0xbe23274c	-0.1593296
204	0xbea8b3ab	-0.32949576
205	0x3dca32af	0.098729484
206	0x3e7d9956	0.24765524
207	0x3eb62f39	0.35582903
208	0xbdbba0fa	-0.09161563
209	0x3ea87c0d	0.32907143
210	0x3ef66db6	0.48130578
211	0x3e0706af	0.13186143
212	0x3e8aee0f	0.2713475
213	0x3eb825f2	0.3596645
214	0xbe17993d	-0.1480455
215	0xbc39a151	-0.011329965
216	0x3e71b8d8	0.23605669
217	0xbebe66f8	-0.37187934
218	0x3e3208bd	0.17386146
219	0xbea58e79	-0.3233526
220	0xbe27dd87	-0.163931
221	0xbe41dd78	-0.1893214
222	0xbea2aead	-0.31773892
223	0xbea5058b	-0.3223079
224	0xbe8e1adc	-0.27754867
225	0x3e56ac33	0.20964126
226	0xbebeb79b	-0.37249455
227	0xbe2d06b6	-0.16897091
228	0xbcbcf075	-0.023063878
229	0xbd26fb8b	-0.040767234
230	0xbe8988c3	-0.26862153
231	0xbe8c2155	-0.2736918
232	0x3b57eae7	0.003294641
233	0x3e7edb74	0.24888402
234	0x3e9a5c70	0.3014865
235	0x3d5a4b0e	0.053294234
236	0x3e7fc988	0.24979222
237	0xbeb4e53e	-0.35331148
238	0xbdf9ef84	-0.12203887
239	0x3e695ef9	0.22790135
240	0x3df267c9	0.11836202
241	0xbe935e94	-0.28783095
242	0xbec93dc4	-0.39304936
243	0xbeae05d0	-0.3398881
244	0x3dbb1cff	0.0913639
245	0x3e3f5383	0.18684201
246	0xbd875b1a	-0.06609173
247	0xbcf1ed4d	-0.0295321
248	0x3de7c9c6	0.11317782
249	0x3d96b490	0.07358658
250	0xbe607458	-0.21919382
251	0xbe95f943	-0.29291734
252	0xbdc22cda	-0.09481211
253	0xbeaf9861	-0.34295943
254	0xbd00b530	-0.031422794
255	0x3e7f79d6	0.2494882

interactions.1.message.rbf_to_scalar.0.bias f4 [32]
0	0x3c1f186e	0.009710414
1	0xbba43744	-0.005011471
2	0xbb342185	-0.00274858
3	0xbc61c352	-0.013779478
4	0xbaa6babb	-0.0012720445
5	0xb9d421c0	-0.00040460937
6	0x3b94f4ce	0.0045457846
7	0xba7dbc4c	-0.00096792425
8	0xbb934c6b	-0.0044951937
9	0x3b19a621	0.0023444968
10	0x3b107ad8	0.0022045877
11	0xb9d10ef6	-0.00039874733
12	0x3b673ecd	0.0035285235
13	0x3b389c81	0.0028169455
14	0x3b3147e3	0.0027050904
15	0x3b2482e6	0.0025102436
16	0x3bd32295	0.0064433315
17	0x39f1fb7d	0.00046154475
18	0x3c11dd30	0.008902833
19	0x3b7022d6	0.0036641858
20	0x3a30123b	0.0006716584
21	0xbbd66cb9	-0.0065437225
22	0x3a228570	0.00061996933
23	0x3b0abeb0	0.0021170788
24	0x393e13b9	0.0001812716
25	0x3c51882e	0.012788815
26	0x3ca5d857	0.02024476
27	0xbc7b2e32	-0.015330838
28	0x3b62880c	0.0034565954
29	0x3bc34c97	0.005960058
30	0xbb273590	-0.0025514103
31	0x3c208bd7	0.009798965
